data.pth (torch, 4823 bytes, 6 tensors)

l1.weight f4 [8, 50]
0.15726477 -0.20552164 -0.4739659 0.5228111 0.39599103 0.015693106 -0.16511162 -0.33292088
-0.7994581 -0.49278525 0.8711606 0.11372058 -0.60418373 0.37780187 -0.059607152 0.72497934
0.09886337 -0.17298716 1.0643979 0.20067477 1.1142132 0.8591778 0.9177059 -0.26583105
0.4326498 -0.33659002 -0.37897313 -0.50942975 -0.1776947 0.07191622 0.17384796 0.113342464
-0.3102078 -0.2639283 -0.43460438 -0.79725105 -0.2903379 -0.20175959 0.04364802 -0.37375984
-0.28437558 0.041679773 -0.38823423 -0.24559274 0.12179948 0.33007088 -0.4098755 -0.27407855
-0.071395546 0.39343256 -0.049339447 0.62155074 0.31950322 -0.33410752 -0.19788319 0.54620075
0.6334663 0.6744601 0.584243 0.46167138 -0.3787306 -0.0526288 0.75270706 0.097772405
0.67719436 -0.12722155 0.48915702 0.31269845 -0.5059906 0.18906294 -0.50603 -0.5059609
-0.5336482 0.45331886 -0.3370455 0.4256267 0.6995867 0.21551134 0.57771385 0.15166306
0.044541024 -0.028880464 0.13354886 0.7892042 0.30679232 0.6753861 0.44946304 0.46034566
0.29473484 0.5173049 0.55574745 0.44827893 0.72228587 -0.15513726 0.29388928 0.1651272
0.52335143 0.32288936 0.59646475 0.4288876 -0.07012935 0.65508235 -0.30875388 0.09146934
-0.11749494 8.9016205e-05 -0.1661429 -0.53043497 -0.24014534 -0.37392494 0.07662344 0.63281894
0.065730795 0.56093544 0.6591826 0.07647028 -0.059802394 0.24501562 0.22466266 0.06889489
0.16583341 0.21502078 0.57778156 -0.11588385 0.11050328 0.3597154 0.7367661 0.05010328
0.73484427 -0.09557802 0.7284892 -0.09700802 -0.398954 0.58690155 0.09503177 -0.28452897
-0.0039195823 -0.19233473 0.027942637 0.4340003 0.5198513 0.19768703 0.7513213 -0.4712964
0.019102585 0.19924346 0.35661077 0.19187777 -0.06905286 0.09469497 0.74716973 0.18352515
0.37792954 0.48491797 0.42283565 0.53972644 0.26109436 0.43402052 0.4934139 0.5882676
0.45443565 -0.25675416 -0.07250831 -0.40489677 -0.18154213 0.4333325 0.2260613 -0.32306305
0.60167485 0.3814252 0.77714705 0.61612266 -0.10743879 0.46346492 0.59037423 -0.30281976
-0.64118576 -0.39772162 -0.56589806 0.013351973 -0.3310941 0.5255748 0.36809805 -0.39900443
-0.28550538 0.5507291 0.3969419 0.25478765 0.15373552 -0.49244732 -0.14009082 0.22035743
-0.1593429 0.98467886 0.34105217 0.15960807 -0.42494875 -0.31986728 0.47910637 0.4515625
0.7296486 -0.3455306 0.45868817 -0.06585913 0.15524617 -0.26526964 0.42727843 0.5477427
0.2666028 0.55010295 0.08916693 -0.15511543 0.27525628 -0.29415452 -0.12935123 0.03748966
-0.13965206 0.07805519 0.04019201 0.4303396 0.0060446644 -0.07398752 -0.39671865 0.30176938
-0.18346192 0.10031304 -0.5248245 0.24704789 -0.4894458 -0.28212008 -0.2024984 0.43972802
0.5071955 -0.12188988 0.23244344 0.46122777 0.3141072 0.41378337 -0.28073785 -0.033313207
-0.16673529 0.45243698 -0.1806316 1.066198 0.46002316 0.07877243 0.16177252 -0.08452723
0.3064825 0.4885166 0.56456894 0.39891508 0.05607133 -0.08898834 0.12777872 -0.50586784
00000000: 040a 213e 4474 52be a9ab f2be f3d6 053f
00000010: 56bf ca3e d48e 803c 0513 29be 9b74 aabe
00000020: 49a9 4cbf 594e fcbe 6204 5f3f 56e6 e83d
00000030: c9ab 1abf 3f6f c13e a126 74bd 3f98 393f
00000040: e178 ca3d 8c23 31be 313e 883f b07d 4d3e
00000050: 8a9e 8e3f 14f3 5b3f c6ee 6a3f 021b 88be
00000060: 4684 dd3e 8755 acbe c408 c2be fd69 02bf
00000070: 99f5 35be d048 933d 3305 323e 1820 e83d
00000080: 8fd3 9ebe 9c21 87be 7784 debe a518 4cbf
00000090: 2ba7 94be 119a 4ebe 44c8 323d 735d bfbe
000000a0: ad99 91be 69b8 2a3d a3c6 c6be aa7c 7bbe
000000b0: 0172 f93d 0dff a83e 34db d1be 0654 8cbe
000000c0: d437 92bd fe6f c93e 2918 4abd f31d 1f3f
000000d0: ed95 a33e 2410 abbe e4a1 4abe d0d3 0b3f
000000e0: d92a 223f 6ba9 2c3f f390 153f 3160 ec3e
000000f0: fae8 c1be 4c91 57bd 69b1 403f e63c c83d
00000100: 9c5c 2d3f 5e46 02be ca72 fa3e 031a a03e
00000110: 9a88 01bf b799 413e 2f8b 01bf a786 01bf
00000120: 2b9d 08bf 6919 e83e 3a91 acbe beeb d93e
00000130: 1d18 333f 01af 5c3e 0ee5 133f 904d 1b3e
00000140: a670 363d b996 ecbc 08c1 083e 4909 4a3f
00000150: e213 9d3e 1ae6 2c3f 0520 e63e 6db2 eb3e
00000160: 7ce7 963e 186e 043f 7745 0e3f d184 e53e
00000170: bae7 383f 4ddc 1ebe a878 963e 1b17 293e
00000180: 5cfa 053f c151 a53e eab1 183f 2897 db3e
00000190: fa9f 8fbd 7ab3 273f fd14 9ebe 4754 bb3d
000001a0: 30a1 f0bd 36ae ba38 5d21 2abe 96ca 07bf
000001b0: a9e8 75be 1773 bfbe c0ec 9c3d 6c00 223f
000001c0: de9d 863d 7799 0f3f 31c0 283f 739c 9c3d
000001d0: 5bf3 74bd 60e5 7a3e f80d 663e c418 8d3d
000001e0: 3cd0 293e 682e 5c3e 7ee9 133f 8354 edbd
000001f0: 8b4f e23d 9e2c b83e b49c 3c3f 1939 4d3d
00000200: c11e 3c3f 69be c3bd 457e 3a3f 24ac c6bd
00000210: b343 ccbe 2e3f 163f 04a0 c23d c8ad 91be
00000220: d76f 80bb 65f3 44be f5e7 e43c 4a35 de3e
00000230: fa14 053f 786e 4a3e 9856 403f c34d f1be
00000240: 067d 9c3c 7a06 4c3e b095 b63e 9b7b 443e
00000250: 966b 8dbd 70ef c13d 8446 3f3f 04ee 3b3e
00000260: fb7f c13e 2b47 f83e ea7d d83e 832b 0a3f
00000270: 29ae 853e f037 de3e bfa0 fc3e b598 163f
00000280: caab e83e 4875 83be 3d7f 94bd a14e cfbe
00000290: 2ee6 39be c2dd dd3e 9d7c 673e 8568 a5be
000002a0: 5d07 1a3f 2a4a c33e 1cf3 463f 37ba 1d3f
000002b0: de08 dcbd 464b ed3e c422 173f 310b 9bbe
000002c0: c024 24bf 2ba2 cbbe b2de 10bf 3cc2 5a3c
000002d0: 2a85 a9be 128c 063f 5977 bc3e 4f4a ccbe
000002e0: c32d 92be 95fc 0c3f f83b cb3e 8773 823e
000002f0: d86c 1d3e 0e22 fcbe f873 0fbe 61a5 613e
00000300: c92a 23be ea13 7c3f 649e ae3e 4c70 233e
00000310: e292 d9be a5c5 a3be 6e4d f53e 3333 e73e
00000320: 40ca 3a3f 63e9 b0be 2dd9 ea3e 27e1 86bd
00000330: daf8 1e3e 6cd1 87be 3dc4 da3e de38 0c3f
00000340: 2a80 883e 8cd3 0c3f 279d b63d 94d6 1ebe
00000350: 64ee 8c3e 6c9b 96be a674 04be c28e 193d
00000360: f300 0fbe 66db 9f3d 61a0 243d 7955 dc3e
00000370: 5212 c63b c586 97bd b51e cbbe 8481 9a3e
00000380: 71dd 3bbe ec70 cd3d e65a 06bf 1ffa 7c3e
00000390: a498 fabe 0b72 90be be5b 4fbe 0824 e13e
000003a0: 90d7 013f 67a1 f9bd a705 6e3e 0c26 ec3e
000003b0: a9d2 a03e 6adb d33e dfbc 8fbe 6e73 08bd
000003c0: a8bc 2abe d2a5 e73e 7df7 38be 2d79 883f
000003d0: 2888 eb3e 7153 a13d b2a7 253e 9d1c adbd
000003e0: 46eb 9c3e d91e fa3e 9787 103f 993e cc3e
000003f0: 0dab 653d 853f b6bd 6dd8 023e 8e80 01bf

l1.bias f4 [8]
0.9943941 0.50597686 0.5472265 0.8799809 0.59600693 0.5059411 0.93837595 0.34451178
00000000: 9d90 7e3f b387 013f 0917 0c3f 6e46 613f
00000010: e993 183f 5b85 013f 6839 703f d963 b03e

l2.weight f4 [8, 8]
-0.5097894 0.22724588 -1.0677747 0.99868006 0.23385596 0.14994167 -0.67288977 0.40805504
0.123464674 0.022269756 0.0045233965 0.075682074 0.028877586 -0.29146206 -0.2894244 -0.17323922
-0.78619844 1.2464428 -0.09701723 0.4471307 0.9823997 0.7671346 0.32419717 0.18196882
1.1551284 -0.40457207 0.06858801 1.4306647 0.7602111 -0.19844556 1.3211828 -0.69728357
-0.33095682 0.9881181 0.8754774 -0.40049008 -0.6459118 1.0487396 1.1714163 -0.7422504
-0.19089635 -0.2178239 -0.0508188 -0.31232965 0.057704628 -0.014755696 -0.037365884 -0.0072978437
-0.67894864 0.15394066 -0.84865355 0.4252779 1.0596979 1.0020205 0.105001524 1.0292596
0.71220624 -1.1723858 0.62229216 0.3205585 0.15660697 1.2584769 -0.057935663 0.605691
00000000: 8f81 02bf 25b3 683e d7ac 88bf 7fa9 7f3f
00000010: f077 6f3e 4f8a 193e 8142 2cbf 97ec d03e
00000020: 0cdb fc3d 106f b63c 0039 943b 34ff 9a3d
00000030: b090 ec3c 843a 95be 6f2f 94be 9f65 31be
00000040: 4d44 49bf 708b 9f3f f8b0 c6bd 51ee e43e
00000050: 8c7e 7b3f ef62 443f 2cfd a53e 0956 3a3e
00000060: 3fdb 933f 1224 cfbe df77 8c3d 0520 b73f
00000070: 329d 423f 5035 4bbe 851c a93f 2d81 32bf
00000080: 2c73 a9be 4ff5 7c3f 491f 603f 090d cdbe
00000090: 7a5a 25bf 193d 863f f8f0 953f 1f04 3ebf
000000a0: 557a 43be 3a0d 5fbe 6027 50bd ace9 9fbe
000000b0: b05b 6c3d e0c1 71bc f80c 19bd c022 efbb
000000c0: 94cf 2dbf 9fa2 1d3e 5c41 59bf 06be d93e
000000d0: 2ea4 873f 3542 803f 0a0b d73d c7be 833f
000000e0: 2653 363f bd10 96bf 8a4e 1f3f 3e20 a43e
000000f0: 945d 203e c515 a13f f24d 6dbd 910e 1b3f

l2.bias f4 [8]
-0.20244755 -0.11104898 -0.18797539 0.79750216 0.11980479 -0.32158184 -0.13166386 -0.2418265
00000000: 694e 4fbe a66d e3bd 9f7c 40be 1a29 4c3f
00000010: 375c f53d 60a6 a4be e4d2 06be 5ea1 77be

l3.weight f4 [8, 8]
-1.0644127 0.10936478 -1.1433808 -0.22985117 0.5139326 0.2720438 -0.56830776 0.37535855
-0.69900787 0.35237882 0.22519045 -0.77156186 0.82788396 0.26956084 -0.6617357 -1.1080867
-1.9783207 -0.09733617 -0.2356104 0.8335187 0.024722775 0.23775974 -1.4704025 -1.8851182
-1.1678784 -0.2964351 -1.633957 0.6831631 -1.579371 0.3231115 -1.1602821 1.1258985
-1.3788162 -0.100601375 0.2847517 -1.3282253 0.11055504 -0.09824741 0.61785495 -0.100051016
1.3730294 0.14899012 0.15351088 -0.40849525 -0.95671886 0.11828476 0.69981855 -1.8937184
-0.7651914 0.20094827 -0.051409863 0.201059 -0.5023617 0.07842201 0.33046913 -0.13879223
-0.29790494 -0.02497062 -0.68409175 -0.73940754 -0.29534903 0.17871091 -0.33662573 -0.96423775
00000000: ad3e 88bf a4fa df3d 4d5a 92bf 1b5e 6bbe
00000010: 1691 033f 5349 8b3e 9e7c 11bf ff2e c03e
00000020: 2ef2 32bf ff6a b43e 5398 663e 1485 45bf
00000030: 34f0 533f e103 8a3e 8367 29bf c9d5 8dbf
00000040: 9d39 fdbf 3058 c7bd da43 71be 7b61 553f
00000050: 6b87 ca3c 4a77 733e 2636 bcbf 8e4b f1bf
00000060: 0a7d 95bf 57c6 97be 8125 d1bf c7e3 2e3f
00000070: d428 cabf df6e a53e 2084 94bf 711d 903f
00000080: 0d7d b0bf 1808 cebd faca 913e 4903 aabf
00000090: ae6a e23d f035 c9bd be2b 1e3f 8ce7 ccbd
000000a0: 6dbf af3f de90 183e f531 1d3e 4a26 d1be
000000b0: 87eb 74bf 483f f23d 4f27 333f 5d65 f2bf
000000c0: 95e3 43bf 62c5 4d3e 2693 52bd 69e2 4d3e
000000d0: c79a 00bf b89b a03d 4033 a93e 8d1f 0ebe
000000e0: ff86 98be 308f ccbc a320 2fbf d049 3dbf
000000f0: fd37 97be feff 363e 355a acbe 49d8 76bf

l3.bias f4 [8]
-0.56741375 -0.40790483 0.3371128 0.34798893 0.08796927 -0.47880885 -0.56867045 -0.5274838
00000000: 0742 11bf e7d8 d0be 0d9a ac3e 9b2b b23e
00000010: 3c29 b43d 6f26 f5be 6394 11bf 2e09 07bf
