data.pth (torch, 4823 bytes, 6 tensors)

l1.weight f4 [8, 50]
000000 87 ac b5 3e d9 05 10 3f bf 82 e3 be 56 d2 f2 3e
       0.3548319 0.5625892 -0.4443569 0.474261
000010 b1 c9 e4 3e e2 08 1a bf 23 8e 71 be 59 68 a6 be
       0.44685128 -0.60169804 -0.23589377 -0.32501486
000020 43 9e f7 be fa 6d 61 be 35 53 8f 3e 94 e6 c7 be
       -0.48362932 -0.22014609 0.2799317 -0.39043105
000030 e3 20 ac bc c2 f5 19 be ca 06 0a 3f 25 03 fd 3e
       -0.021011775 -0.15035155 0.5391661 0.49416462
000040 24 ce 20 bf a6 49 f1 3d e6 cd 2b 3f 20 d7 a7 3e
       -0.62814546 0.117816254 0.6711105 0.32781315
000050 f0 ef 37 3f 1e b2 45 3f 4c b1 c7 3e 57 79 91 bc
       0.7185049 0.7722491 0.39002454 -0.017758055
000060 c5 1f ac 3e b1 bf df 3d 78 f8 11 3f 2b a0 c6 bd
       0.33617988 0.10925234 0.5701976 -0.09698518
000070 8e d9 bb 3e b8 68 8c be 6e c6 5c be c9 c0 32 3e
       0.3668942 -0.27423644 -0.2156007 0.17456354
000080 0b 66 04 bf 44 86 14 3f 7f 26 1a be 80 92 04 bf
       -0.51718205 0.58017373 -0.15053748 -0.5178604
000090 ef 49 01 be eb 94 97 be 95 bf 95 be 4f 22 0b 3c
       -0.1262586 -0.29605803 -0.29247728 0.0084920665
0000a0 43 28 c8 3e 9b 7f d6 be 4f dc e0 3e e7 5f 65 3e
       0.39093217 -0.4189423 0.43918082 0.22399865
0000b0 e5 10 d4 3d c4 b9 df 3e 0c 9c bc bc 77 f9 2b 3d
       0.10354785 0.43696415 -0.023023628 0.041985955
0000c0 7d 97 df bd c5 b4 4c 3e 02 cd 3c 3f 41 85 2d 3e
       -0.10917566 0.19990833 0.7375032 0.16945364
0000d0 8b d2 f8 3e 69 0d 8f be d1 58 db bd d9 00 cd 3e
       0.48598132 -0.2793992 -0.107103 0.4003971
0000e0 5c 47 9c 3e cf b5 f5 3e d9 0e 29 3f d3 a1 0b 3f
       0.30523193 0.4799027 0.6603828 0.545438
0000f0 35 d7 90 be 8b 28 16 be d4 76 4a bd c2 cc 81 bd
       -0.2828919 -0.14663903 -0.04942973 -0.063378826
000100 5c 7f a9 bd d0 8d 70 be 35 27 d2 3e 9e c0 84 be
       -0.08276245 -0.23491597 0.41045538 -0.25928205
000110 24 b9 8e be 74 34 2e 3f ad f7 15 be 49 80 40 be
       -0.27875626 0.6804879 -0.14645262 -0.18798937
000120 95 59 0c be bf f5 cd 3e c7 2c 80 be 09 03 85 be
       -0.13706048 0.40226552 -0.25034162 -0.25978878
000130 43 d3 88 be 72 2f f9 bd 3c 76 a2 be b9 9e 92 3e
       -0.2672368 -0.121672526 -0.3173083 0.2863672
000140 b1 e6 13 bc 95 e9 06 3f 75 89 f3 3e 5b ab dd bd
       -0.009027169 0.5270017 0.4756581 -0.10823699
000150 20 3f 10 be e7 f9 f7 3e 76 76 83 3e 72 95 8c 3e
       -0.1408658 0.48432848 0.25676316 0.27457768
000160 09 fb 7e 3e fc ab 88 be 6a f8 aa bb ca 86 2a 3d
       0.2490045 -0.26693714 -0.0052176015 0.04163245
000170 76 bb 59 3d 45 03 93 3f b0 80 0d 3f 60 bf 80 be
       0.053157292 1.1485373 0.55274487 -0.25146008
000180 01 9b f7 be 32 4c 40 be 95 d8 bc 3e f4 72 e5 3e
       -0.48360446 -0.18779066 0.3688399 0.44814265
000190 bd 77 52 bc e2 a3 e8 3e 25 d0 1e 3f e4 3d 8a 3e
       -0.012845931 0.45437533 0.62036353 0.27000344
0001a0 31 16 8a 3e 46 c3 a9 be 85 da e5 3e 84 32 f6 3e
       0.26970056 -0.33156794 0.4489328 0.48085415
0001b0 3e 01 3e 3f 3c 98 ec 3e e1 0c 96 3b 12 0c 2b be
       0.74220645 0.46209896 0.004579172 -0.16703823
0001c0 ea e2 e6 3e a8 ef e6 bd d5 46 c8 3e 0b f9 da 3d
       0.45094997 -0.112761796 0.3911654 0.106920324
0001d0 e6 93 a0 be 4d 61 80 be cd 7f 52 bd db 4f 3b 3e
       -0.31362838 -0.25074235 -0.05139141 0.18292181
0001e0 ca 48 a1 bd ec 91 a9 bd 02 a3 db be 7b b0 ea 3e
       -0.078752115 -0.082797855 -0.42897803 0.4583777
0001f0 08 65 dc 3d 22 1c ea be 6d 6f ce 3e a7 62 4b 3e
       0.10761458 -0.4572459 0.40319386 0.19861852
000200 cf 04 96 3e e9 85 b4 be b6 c6 72 be b3 91 36 bc
       0.29300544 -0.35258415 -0.23708615 -0.011143136
000210 dd 66 3b 3f 33 1a fc 3e 59 54 e4 3d 4a a8 12 3f
       0.7320383 0.49238738 0.111489005 0.5728804
000220 95 65 fa 3e 71 80 e8 3e fe 82 3e be fc 2d e6 be
       0.48905626 0.45410493 -0.18604657 -0.44956958
000230 13 b9 e8 3e 1b 36 08 3f 1c 84 0b 3f f1 d7 32 3d
       0.454537 0.5320756 0.5449846 0.04366297
000240 69 e0 45 3e 09 a5 6e 3e 73 e2 da be ac 4f ac be
       0.19323887 0.23305143 -0.42750892 -0.33654535
000250 44 c9 b8 3e 8a e1 9d 3e e2 47 e1 3d 6f 37 cf 3e
       0.36091053 0.30836135 0.11000039 0.4047198
000260 53 b5 27 be d8 04 ae be de db 63 ba ae 4d a5 be
       -0.16377763 -0.3398807 -0.00086921256 -0.32285827
000270 1e d6 8d 3e d3 44 2a bc 48 57 71 3e a4 f4 54 3d
       0.2770242 -0.010392386 0.23568451 0.05199112
000280 1b 70 eb bd 22 dd bd 3d 42 27 3e 3f a0 8d c1 3b
       -0.11495992 0.09270693 0.7427865 0.0059067756
000290 60 69 76 3e 4b 0d 55 be 24 4d a5 be 9c b4 22 3f
       0.24063635 -0.20805852 -0.32285416 0.6355684
0002a0 d9 4c a5 be 27 89 89 3e e1 52 a5 be 66 51 a5 be
       -0.32285193 0.2686245 -0.32289794 -0.32288665
0002b0 2d 20 34 bf 87 a7 c2 3e 09 71 87 be 3b 50 28 3f
       -0.70361596 0.38018438 -0.26453426 0.6574742
0002c0 b7 2f eb 3e 79 84 10 3f bb 03 87 3e 20 59 01 bf
       0.4593484 0.5645214 0.26370034 -0.5052662
0002d0 46 84 f7 bd ac 12 7b bd b4 5d 60 be fa d7 da 3e
       -0.12085776 -0.061297104 -0.21910745 0.42742902
0002e0 06 f7 f9 3e 1c 9e 33 3e 18 36 bb 3e 20 1c 24 3e
       0.48821276 0.17540783 0.36564708 0.16026354
0002f0 c7 93 8a be dd 9f 08 3f 7d ec a0 3e 26 da b6 bc
       -0.2706587 0.5336893 0.31430426 -0.022320818
000300 df 3a 91 3e 21 34 c3 3e 97 a7 8f 3d b4 e3 d0 3e
       0.28365228 0.3812571 0.07014387 0.40798724
000310 4a d3 5c 3f 58 4c e7 3e 5e c2 2f 3e 53 f0 e7 3e
       0.862599 0.45175433 0.17163989 0.4530054
000320 38 42 50 be 09 3e 69 be eb 40 d4 3e d2 ab 53 3e
       -0.2033776 -0.22777571 0.41455778 0.20671013
000330 85 37 b5 3e 4f 53 a2 3f 84 e1 39 3e 6f 0f d6 3e
       0.3539392 1.2681674 0.18152434 0.4180865
000340 03 71 bd 3e d4 10 bc 3e 43 f9 1a 3e f0 a2 31 be
       0.37000284 0.3673159 0.15134148 -0.17347312
000350 c1 9a 7d bc cc 25 c7 bd a6 39 d9 bd a6 88 94 3e
       -0.015478791 -0.09724006 -0.10606699 0.29010504
000360 2e 70 a4 3f fd 42 66 be 62 df 5a bd 53 6f 3e be
       1.2846735 -0.22486492 -0.05343569 -0.18597154
000370 25 33 07 bd c6 fc 11 bd c8 02 fc bd 75 a9 10 3e
       -0.03300776 -0.035641454 -0.12305218 0.14127143
000380 30 10 c0 3e ef ec d5 be 76 4f 65 be 8b 38 4e bd
       0.3751235 -0.41782328 -0.22393593 -0.050346892
000390 25 a2 9f be 9c c2 3d 3f dc a9 ca bb f7 50 13 3c
       -0.31178394 0.74125075 -0.0061847996 0.0089914715
0003a0 3f 3f e4 3e 72 3f 56 be bb f2 b5 bd 51 a4 e8 3e
       0.44579503 -0.2092264 -0.08884188 0.45437863
0003b0 ca 71 ad 3e 24 60 ca 3e 56 83 69 3f 09 fd c3 be
       0.33875877 0.39526474 0.9121603 -0.38278988
0003c0 43 3a 3d be b0 f2 f1 3e fc 39 72 be 45 43 27 bf
       -0.18479256 0.47255468 -0.23654932 -0.6533702
0003d0 d3 74 6e be db 43 c4 bd 25 7e ec be f9 9c 4e be
       -0.23286752 -0.09583255 -0.4618999 -0.20177068
0003e0 d9 7c 55 3e b1 39 cb 3d ec e3 00 3f 8c 7d f8 bd
       0.20848407 0.09923113 0.5034778 -0.12133321
0003f0 23 37 d4 be 41 00 f1 3e 74 ef 73 3d cf ca ae bc
       -0.41448316 0.47070506 0.059554532 -0.021336941

l1.bias f4 [8]
000000 30 03 49 3f ea 05 48 3f 73 37 c7 3e a1 4c a5 3e
       0.7852049 0.78134024 0.38909492 0.32285026
000010 12 c6 42 3f f9 c9 75 3f fe 1b e6 3e 12 61 4a 3f
       0.7608348 0.9601131 0.4494323 0.7905437

l2.weight f4 [8, 8]
000000 e6 f0 4b 3f 16 5c 07 3f 73 bb 05 3f db 40 11 3f
       0.79664457 0.52874887 0.5223915 0.56739587
000010 00 1c 40 bf 09 0a a0 3e cf bd 16 3f bd 72 bc 3e
       -0.75042725 0.31257656 0.58883375 0.36806288
000020 d4 76 5a 3f 1b ec 2f 3f 87 11 37 3f 1e 0b 1a bf
       0.8533757 0.68719643 0.7151112 -0.60173213
000030 4f 68 9b 3f f8 92 82 ba 3d c1 4a 3f 56 b3 85 3f
       1.2141207 -0.0009962013 0.7920111 1.0445354
000040 de b0 7e 3f fd 01 08 bf 6e f9 c6 3c 9e 69 79 bf
       0.9948863 -0.53128034 0.02428886 -0.97426784
000050 6a 71 1f bd 7e 9f 05 3f 2e c2 18 bf 8f f1 80 3f
       -0.03892652 0.5219649 -0.59671295 1.0073718
000060 3f 32 8e 3f 83 19 fa 3d b7 0e 7f be cd 59 89 3f
       1.1109084 0.12211897 -0.24907957 1.073053
000070 29 87 8f bf 16 97 bb 3f 4b 1c 28 3d 17 d2 5b 3b
       -1.1213123 1.4655483 0.041042607 0.0033541971
000080 c8 87 33 bf 9c 52 78 3f 08 8b 00 3e c8 a3 08 be
       -0.7012906 0.9700105 0.12553036 -0.13343728
000090 ca 7f d1 3d 03 84 85 3c 78 e1 37 3f 19 6a 8e 3e
       0.10229452 0.0162983 0.71828413 0.2781532
0000a0 b7 27 25 3e c3 5e ed bc 7c 84 b6 be 04 71 57 3e
       0.16128431 -0.02897585 -0.35647953 0.21039206
0000b0 41 dd 61 bd ba 4b d7 be 4f 09 8d bd a1 3f 6c 3e
       -0.055142645 -0.42049962 -0.06886541 0.23071148
0000c0 49 1a 8c be 3d 5b 51 3f d3 22 ae 3f 57 b1 41 3f
       -0.27363804 0.81779844 1.3604378 0.75661224
0000d0 4a 21 16 3f 2b a6 22 bf 17 48 84 3f d3 2a 0a 3f
       0.58644545 -0.635348 1.03345 0.53971595
0000e0 56 a0 cf 3e 49 05 81 3f d5 4c 72 bf c0 13 c7 be
       0.40552014 1.0079738 -0.94648486 -0.38882256
0000f0 e5 8d 8e 3f 2e 66 ba 3f ce 4f 90 3d 08 59 f9 3c
       1.1137053 1.4562433 0.070464715 0.030437961

l2.bias f4 [8]
000000 c9 aa a8 be 2e ae 33 3e a9 47 99 be 4e 56 0a 3f
       -0.329428 0.17546913 -0.29937485 0.5403794
000010 b8 e2 12 bf 4f fa 95 be 27 01 56 be e8 fc 20 3f
       -0.57377195 -0.29292533 -0.20898877 0.62885904

l3.weight f4 [8, 8]
000000 c9 7c 16 c0 54 c9 0b 3d ce a4 3f bf c5 ed 40 3f
       -2.3513663 0.03412755 -0.74860847 0.7536281
000010 07 8f fa bf 17 61 38 3d cc 80 f2 bf 69 66 66 3f
       -1.9574898 0.045014467 -1.8945556 0.90000015
000020 68 f8 31 3f d8 63 e6 3e 1b dd 4e bf 87 ca c0 3d
       0.6951966 0.4499805 -0.8080613 0.09413629
000030 43 25 d2 bf 5b 16 38 be fa 78 47 3e 72 a0 a8 bf
       -1.6417621 -0.17977278 0.19479743 -1.3173964
000040 bd 32 d1 bf fa 7d 09 3f 28 5b ad bf ec 05 74 bf
       -1.6343609 0.5370785 -1.3543444 -0.95321536
000050 bb 22 57 3e a1 af 73 bd e3 54 5f be b5 a9 40 3f
       0.21009342 -0.059493665 -0.21809725 0.7525895
000060 4c e7 4c be 47 d4 e1 3e 69 c9 b5 3f c8 fc 68 3e
       -0.20010108 0.44107267 1.420209 0.22752678
000070 63 98 b1 bf 09 a3 6a be e3 ea 99 bf 51 eb 0e 3e
       -1.387463 -0.22913755 -1.2024807 0.13956954
000080 c1 f5 13 3f 0e 66 a7 bf dd 0f 89 bf ae 44 53 3f
       0.57796866 -1.307802 -1.0707966 0.8252667
000090 eb 59 e1 bf 38 9f 35 bd b9 c9 40 bf 3c 15 77 3e
       -1.7605566 -0.044341296 -0.75307804 0.24129194
0000a0 ef 47 3d bf c5 14 ee 3e 4b 19 04 bf c0 fd 3f bf
       -0.73937887 0.4650022 -0.51601094 -0.74996567
0000b0 10 33 0a 3f 29 f7 7c be c5 f3 2d 3f 74 89 36 bf
       0.53984165 -0.24703659 0.6795009 -0.71303487
0000c0 8e 13 2b 3f b4 ce 77 3c 5b b9 62 bf ba 9e dd 3d
       0.66826713 0.015124965 -0.8856408 0.1082129
0000d0 e1 e3 94 3e a9 2b d0 3d 12 12 c9 be cc 3a 49 3e
       0.29080108 0.101645775 -0.392716 0.19651335
0000e0 33 a9 b0 be 8f 39 4a bf 54 1a 36 bf 15 2f 13 bf
       -0.3450409 -0.7899408 -0.71133924 -0.57493716
0000f0 a2 30 67 bf 41 69 aa bd 7c 17 3f bf 10 09 2c bf
       -0.9030858 -0.08320857 -0.7464521 -0.6720133

l3.bias f4 [8]
000000 25 79 55 3f 31 2b a3 bb 6d 53 f8 3e 62 bb 85 be
       0.83387977 -0.004979514 0.4850115 -0.26119524
000010 fb 44 6d 3e 1a e2 9f bd 02 62 15 bf c4 d8 c7 be
       0.23170845 -0.07806797 -0.58352673 -0.39032567
