data.pth (torch, 4823 bytes, 6 tensors)

l1.weight f4 [8, 50]
00000000: bff6 3fbe 84b0 c5be a014 8fbe 6417 63be
00000010: 4371 203e 4f42 96be ab36 ee3c 6a3b 3cbe
00000020: 72cb c5be 6aa3 04be c82e 713e 7904 f9bd
00000030: 1eb5 1f3f b448 acbd ef66 31be 0019 403e
00000040: 9ee8 a1be 2bcc 363f 8cfb 073e 96e6 aebd
00000050: cf42 143e f466 3fbe 9e35 f9be 3b90 fbbc
00000060: 6d17 3ebe 1a20 3e3f 5d30 05bf fe1e 0b3f
00000070: 1d2f c5be f803 97be c0d4 1e3c 259f ea3d
00000080: b2d4 68be cd25 a83c 4a30 1a3f 4ec3 a5be
00000090: 9b75 86bd f57a 813c b7dd bebe 35c2 383f
000000a0: f35e 1dbe 9afa 49be f63e 2cbc e5dc 07bf
000000b0: e5ea 31bd e7cf 073f f33f 5e3f c99f 373f
000000c0: 7da5 473d bdfb b33e 6bf7 a1be 5854 b23e
000000d0: 61d3 c03e ca4f ce3e fc56 303f 4349 e2be
000000e0: 40b1 983e 2178 023f 9c98 123f f5e7 ca3e
000000f0: 638c da3e 73d5 b6be 2e2d 103f 0ff6 83be
00000100: b3cf b53e 611c 973e 2f94 c5be 4676 db3e
00000110: 5763 243f 6329 0bbe ea31 103f 2242 323f
00000120: f404 3d3e 848b fa3e 7776 ce3e 000f e63e
00000130: b3fd 093f 6584 1e3e b25b 6d3e 628d 6ebe
00000140: 97b5 d7bd 4f59 823b 52a9 073f ca9c 053f
00000150: 5231 523e 43c3 433f 8ee5 0a3f 98b1 d33e
00000160: 5c6f dbbe e698 593e f166 933e 3207 cd3b
00000170: 5b23 de3e 427e 37bf 61d8 6cbe 244a e73e
00000180: d754 913e 8a24 c93e 0498 0d3f fe51 de3e
00000190: b2cb 83be 9d30 093f 4cc1 233f de2b fd3e
000001a0: 5f72 413f 1a78 18bf 2ef6 d23e ff73 b13e
000001b0: 63df 143f ddf9 d53e d663 ff3e 229d 93be
000001c0: 6561 253f 651d 8cbe 8c39 aa3e 24bc ea3e
000001d0: 1488 2fbf a2ee 4bbe 6658 373f dfb7 adbd
000001e0: fcaf 323f 4b71 403f b216 463d 017a 083f
000001f0: 548b 913e 9489 dcbc 01f1 f33e aaf3 9e3d
00000200: 5752 da3d 8f14 fdbe 480b 9abe c1c6 53be
00000210: eb0b d53e 8ff7 043f d9b6 2d3c 3052 363f
00000220: 341b ec3e 9306 d03e 193b 08bf f49c a1be
00000230: 5967 033f 7a61 0b3e fa9f e43e 129a 1abf
00000240: 2c8e 10be bc3d a93e 36b4 b7bd 705e 24be
00000250: 4579 e03e 9491 c53e 04ff 52be 3c75 b2be
00000260: 9370 793c 9a94 c83e c676 093e a6c5 633f
00000270: 0e3c 62bc 240d 9b3d 8d8f 00bf 6136 1d3e
00000280: 6adc 133f 161b 523e 238c aebe 9df7 a73d
00000290: c37a 5ebe 8284 cd3e 6b9f 523f 2f3e 37be
000002a0: 14bd 233f d8d9 b3be 67e9 f53e 7bc6 d83e
000002b0: cb85 0a3f ff82 34bd a3ed a93e bec3 dbbe
000002c0: 8826 17be fb82 31be 1eea 87be e9cc 1f3f
000002d0: 6df2 773d 634e df3d f133 dbbc b59c a0be
000002e0: 8695 9abe 0901 3cbf 77e9 45be e2bf e0bd
000002f0: d16c 0f3f 59bb 82be 1cc5 8ebe 960e d03d
00000300: df4a f4bd 79d2 6dbf 4457 bebe f607 b23e
00000310: 8ab6 01bf 7e4e 1dbe 321a 923d f088 313e
00000320: 1ee7 f43e 830c 753d b2a6 97be f31c 993e
00000330: d778 223e a58c 243f 7807 17be 8a45 51be
00000340: f764 3abf 7cd6 98be 2da1 d33e 0be4 01be
00000350: fc20 eabe c8c7 3dbe fa85 823d 63a1 ad3e
00000360: bffb 203f 2713 f23d 9e0d f63e d9f7 b93e
00000370: 8114 253f 08a1 0b3f 37ae f93e a2d7 47be
00000380: 46da bc3e 6c21 b2bd 0e52 17be 3d74 0fbe
00000390: 44cb 99be 31ba cb3e 2f46 8bbe 9a8a 093f
000003a0: 3070 00bf b7a1 a9be 8d4f 3d3d c60c 36bf
000003b0: 0d53 6cbe 4d81 d3bd 95b4 c53e 8bb3 97bb
000003c0: 8ecc 53be 3c37 a4be 3f10 4dbe b3b8 573f
000003d0: e72c db3e 41cf 803e ac62 8bbd b337 1a3d
000003e0: e55e 95be 88f3 9f3e c3d2 87bd 9d3d 80be
000003f0: 1b26 043f d4f6 2ebe 746c 493e f8d8 3fbe
-0.1874647 -0.38611233 -0.27945423 -0.22176892 0.15668206 -0.29347464 0.029078802 -0.1838204
-0.3863178 -0.12952963 0.23553002 -0.12159056 0.6238574 -0.084123045 -0.17324422 0.18759537
-0.31622785 0.71405286 0.13279551 -0.085400745 0.1447861 -0.18691617 -0.4867372 -0.030708423
-0.18563624 0.74267733 -0.5202692 0.54344165 -0.38512507 -0.29495215 0.009694278 0.11456136
-0.22737387 0.020525837 0.60229933 -0.32375568 -0.065654 0.0158057 -0.3727853 0.72171336
-0.15368252 -0.19724503 -0.010513058 -0.53071433 -0.043436904 0.5305161 0.8681633 0.7172819
0.048741806 0.35153 -0.31634077 0.34829974 0.3766127 0.4029525 0.6888273 -0.4419652
0.2982273 0.5096455 0.57264113 0.39630094 0.42685232 -0.35709724 0.5631894 -0.25773665
0.35510024 0.2951384 -0.38589618 0.42863673 0.6421408 -0.13590007 0.5632616 0.6963216
0.1845892 0.48934567 0.40324757 0.4493332 0.5390274 0.15480192 0.2317951 -0.23296121
-0.105326824 0.0039779316 0.5299274 0.52192366 0.20526627 0.7646982 0.5425652 0.4134643
-0.42858398 0.21249732 0.28789476 0.0062569613 0.4338635 -0.7167703 -0.23129417 0.45173752
0.2838504 0.3928569 0.5531008 0.4342193 -0.25741345 0.53589803 0.6396682 0.4944753
0.7556514 -0.5955826 0.41203445 0.3465881 0.5815336 0.41792193 0.49880856 -0.2883082
0.6460174 -0.27366176 0.3324703 0.45846665 -0.68567014 -0.1991525 0.7161926 -0.08482336
0.6979978 0.7517287 0.048361488 0.53311163 0.2842661 -0.026921071 0.4764481 0.07761319
0.10660236 -0.49429747 -0.30086732 -0.20681287 0.41610655 0.51940244 0.010602676 0.7121916
0.46114504 0.40630016 -0.53215176 -0.31565058 0.5132957 0.13611403 0.44653302 -0.6039134
-0.14116734 0.33054912 -0.089699194 -0.1605165 0.4384252 0.3858763 -0.20605093 -0.34855068
0.015224594 0.39175874 0.13424215 0.8897346 -0.0138082635 0.07570866 -0.5021904 0.15352775
0.577582 0.20518145 -0.3409129 0.08201525 -0.21726517 0.40140158 0.822745 -0.17894815
0.63960385 -0.3512714 0.48029634 0.4233893 0.541104 -0.04407024 0.33189115 -0.42922777
-0.14760792 -0.17335121 -0.26545805 0.62422043 0.06053393 0.10903623 -0.026758166 -0.31369558
-0.30192202 -0.7343908 -0.19327341 -0.10974099 0.56025416 -0.2553356 -0.27884758 0.10159032
-0.11928343 -0.9289928 -0.37175953 0.347717 -0.5066916 -0.15361974 0.071339026 0.17337394
0.47832578 0.059826385 -0.29619366 0.299049 0.15866409 0.64277107 -0.14748943 -0.20436683
-0.7281031 -0.2985114 0.41333905 -0.12684648 -0.4572829 -0.18533242 0.0637321 0.3391219
0.62884134 0.11820059 0.48057264 0.36321905 0.6448441 0.5454259 0.48765728 -0.19515851
0.3688528 -0.08697781 -0.14777395 -0.14009185 -0.30037892 0.3979049 -0.27201983 0.53727114
-0.50171185 -0.3313119 0.046218444 -0.7111324 -0.23078556 -0.103273965 0.38614336 -0.0046295575
-0.206835 -0.3207339 -0.20025729 0.84266204 0.42807695 0.25158122 -0.068059295 0.037650775
-0.2917396 0.31240487 -0.066319965 -0.25047007 0.51620644 -0.17086345 0.19670278 -0.18735111

l1.bias f4 [8]
00000000: 74e2 a13e 7afc 2e3f 8488 2f3f 3bd2 6d3f
00000010: ead8 773f cc5c 853e 2f67 253f d69e dd3e
0.31618083 0.68354 0.6856768 0.9289891 0.9681536 0.2604736 0.6461057 0.43285245

l2.weight f4 [8, 8]
00000000: b3f9 efbe 74af 6bbe f79c 033e 796c 74bf
00000010: f05d 0b3f 5ae1 62bf f3d8 0b3f 3d69 a13f
00000020: 79a5 863f 1f21 8b3f 51f4 633f a801 75bf
00000030: d173 a8bc 5324 49bd cf4f 613f ca75 5d3f
00000040: b518 64bf 90b8 1f3e 2084 9b3d 18a2 4c3f
00000050: 5a49 723f d95d 5fbf 3cd7 013f f267 5c3e
00000060: b1f2 eabe 8ac7 57bf 979c 99bf d0d3 843f
00000070: d047 0e3f 1ded 1a3f e655 953f a4bb 233f
00000080: 9d5c 14bf 9e78 913f b961 963f 6aed cc3e
00000090: 43a2 5cbe a025 403f b5d6 9cbf 873e 823f
000000a0: aabc 773e d5f7 2ebe c6aa 1abe 09a8 acbe
000000b0: 00b0 3a3a 09bc a3be 64a0 91bd 8c97 9cbe
000000c0: 1c2b 263f 6b8f 033f 8669 b13e fe7c 913f
000000d0: 033d 973f 1886 11bf 43f4 17be 2ac4 5ebf
000000e0: 604b 7ebe 37ab b13c 4569 93be 62f6 843e
000000f0: e4f8 b7be e131 993d 0806 1cbe f445 c33d
-0.46870193 -0.23016149 0.12852846 -0.95478016 0.5444021 -0.8862511 0.54627913 1.2610241
1.0519248 1.0869483 0.8904467 -0.9570565 -0.020563038 -0.049106907 0.88012403 0.86507857
-0.891002 0.15597749 0.0759356 0.79934835 0.94643176 -0.87252575 0.50719047 0.21524027
-0.45888284 -0.8428885 -1.2000912 1.037714 0.5557833 0.60518056 1.1666839 0.6395819
-0.57953817 1.1364934 1.1748573 0.40024883 -0.21546273 0.7505741 -1.2253023 1.0175332
0.24193063 -0.17086728 -0.15104207 -0.3372195 0.0007121563 -0.31979397 -0.0711067 -0.3058437
0.6490953 0.51390713 0.3465082 1.136627 1.1815494 -0.56845236 -0.14839272 -0.8701807
-0.24833441 0.021688087 -0.28791252 0.25969225 -0.35932076 0.07480217 -0.15236676 0.09534827

l2.bias f4 [8]
00000000: 5ab5 bb3e 86b5 d83e 2ecd 153f 291b d83e
00000010: bf32 123f b6db a4be 9890 023f 3621 4cbe
0.36661798 0.4232599 0.58516204 0.42208222 0.5710868 -0.32198876 0.5100188 -0.19934544

l3.weight f4 [8, 8]
00000000: 0683 b0bf 16ab 96be 9105 c03e 53c7 423f
00000010: b64b f1be 9e73 743e 7042 a0bf 8308 4dbc
00000020: 08c3 e33e 5251 c73e 12dc 643e 8ee6 a4bf
00000030: 449a a13e a045 8f3c 475c 82bf 8a28 073e
00000040: 34a9 66bf 6042 b9bf f899 5b3f e167 823e
00000050: af8e 20bf 00ea 2d3a e19f f93e c88c a63e
00000060: a7f1 32bf 6da4 dbbe 79c4 a93e 3c0c b2bf
00000070: c72f fd3e 805b 333d 1d03 743f a3cf 923e
00000080: caed 5abf cce6 393f 3aa8 8ebf 469a 5cbf
00000090: 4e0e 4abe 4232 213e d7d5 9a3e e921 82bd
000000a0: 344c 76bf b13f 9f3e b04c 9cbf 6d41 3bbf
000000b0: 4718 7c3f 2a27 6d3e dac0 9fbe f1ce b2be
000000c0: 6e19 853f 4793 5cbe b629 d83e 1e71 b3bc
000000d0: d5dd 19bf 9f90 a93e d150 cebe bebf 313e
000000e0: 8463 8abe 4839 07bf aa98 8ebe f8e7 47bf
000000f0: 1d3a cfbe 6b71 9bbe d093 47bf e90a 723e
-1.3789985 -0.29427403 0.37504247 0.76085395 -0.47128075 0.2387223 -1.2520275 -0.012514236
0.44484735 0.3892923 0.22349575 -1.288286 0.31563008 0.017489254 -1.0184411 0.13199058
-0.90101933 -1.4473381 0.8578181 0.25469878 -0.6271772 0.0006634295 0.4875479 0.32529283
-0.6989998 -0.42898884 0.3315771 -1.3909984 0.49450514 0.043788433 0.9531725 0.2867404
-0.8551909 0.72617793 -1.1145089 -0.861729 -0.1973202 0.15741828 0.30241272 -0.06354124
-0.96210027 0.3110328 -1.2210903 -0.73146707 0.98474544 0.23159471 -0.31201822 -0.3492351
1.0398386 -0.21540557 0.42219323 -0.021904524 -0.60104114 0.3311815 -0.40296033 0.173583
-0.2702905 -0.5282178 -0.27850848 -0.7808833 -0.40474024 -0.3035997 -0.7795992 0.23636974

l3.bias f4 [8]
00000000: f192 0fbe 240f ecbe 2aea 88bd 0490 b2bd
00000010: 1aca 43be 0ce6 aabd 1a7f 82bd 0122 67be
-0.14020897 -0.461053 -0.06685288 -0.08718875 -0.19120064 -0.08344659 -0.06371899 -0.22571565
