data.pth (torch, 4823 bytes, 6 tensors)

l1.weight f4 [8, 50]
00000000: 6bdc 14be 8570 9d3e 6b36 ebbe 682b 8a3e
00000010: 389f 693e 282a 08be 1aad 31be ebf2 bebe
00000020: c592 a8be 959f a4be fe35 2d3e ae0c 75be
00000030: 505e ad3e 458d 03be b7b3 153e a8e0 d83e
00000040: 4395 c1be 3ee5 d33e ab71 733e 4749 5dbe
00000050: c5ae 9e3e 14aa d63e b3a0 b63e a59e 0e3d
00000060: 919b a03e 2686 133f aea6 a83e 33d7 a43e
00000070: cea7 8e3e 8835 393d 0efc 0bbe f979 78bd
00000080: b616 d7be c520 e53e cd22 d13e 984e e1be
00000090: 404e afbd 844a e93c a2ed b7bc 4c2a cd3e
000000a0: 050b 623e 3695 3dbe b93b 5c3e d6a1 c4be
000000b0: daf3 88bc 5e95 9e3e 14b4 0e3f 3a3e ca3e
000000c0: bcd3 3abe 18ea 263e 7bce aebd 647d e4be
000000d0: df06 233e d6dc 62be c96e 013e af8d 483f
000000e0: cd20 a23e b720 d13e beaa e53e 744b d13e
000000f0: a0dd 8fbe 996d 1a3e d624 1a3f b0df 913d
00000100: cc07 0ebe 5874 79be cbb9 4f3f c906 123f
00000110: d88d 16bf 2519 26bd 7d88 04bf 96ff 10bf
00000120: 4f79 bdbe 6367 d73e da87 c6be de8e 143f
00000130: a2f9 01bf b8e9 f93e 7626 05bf d3d7 d53e
00000140: f5aa 1a3e feb3 b2bd 162d a83e 757e 14be
00000150: 3561 ed3e c1cf ea3e 28dc 0b3f 2196 033f
00000160: 6929 d73e c71f 073f be49 71bd d91c 0e3e
00000170: 8178 7bbe 212e 35bf 6d10 11be 49f3 353e
00000180: 37f4 2e3f 5162 fe3e 602b b43e aa68 e33e
00000190: b157 1f3f 96e7 1ebd c8c7 273f e2bc 33be
000001a0: 3d0d 913e 6cd6 0a3f d03d f13e e097 cf3e
000001b0: 1b82 ea3e 21f2 263f 2741 aebe 0784 173f
000001c0: 5ebb ca3c 0d9e 463f e331 77be bd57 8dbe
000001d0: 5783 a53e e405 6cbe 8e3d e6be 9af4 943e
000001e0: 02d1 00bf 8da3 e6be 4c7d 16be 23b6 173f
000001f0: 4cb6 55be 2010 e2be 743f dcbe c009 3fbb
00000200: 6312 8abe 232a ea3e a2a3 1f3f f36d fe3e
00000210: ed29 053f f0b2 fcbd 60cf 3bbd 4280 e23e
00000220: b4cc d73e 378d b73e 9fae ce3e c1b0 f2be
00000230: bb07 2fbe 259b 353f 04a6 14be cf9e 663f
00000240: ae5b ac3e 1a84 17be f562 09bf 6059 b8be
00000250: e4cf 0b3f 18c5 aa3e 45d6 4d3f b37d ef3d
00000260: 4506 9abe 4ace d03e ea81 393e dde7 5a3f
00000270: 52fe 4fbb 278e 703d c172 d7be 1d7e e1bd
00000280: 3af4 963e 28fd bdbe f60d 8dbe 5eca 63be
00000290: 50aa 84bd 0b37 883e 614e 513f 3fe2 0d3e
000002a0: 4077 ef3e b6be 443f 67c1 ca3e a03f ac3e
000002b0: a00d ba3d 2af9 1b3d 8e98 6c3e 14a7 233e
000002c0: 8182 a9be a4e6 8c3d c49b 63be ff64 1e3f
000002d0: ec25 3dbe 9f98 243f ea33 fabd 497d c2bd
000002e0: 8acd 483d 3920 bcbe 8d0b d9bd 0cda 02be
000002f0: b301 023f e64d 6d3b f081 44be 2d41 4ebe
00000300: 7d9a d4bd 8993 903f 4214 313f a39c 693e
00000310: c525 c1bd f15e 043e 51f0 8cbd 3ee3 923e
00000320: cd0e 77be c387 10be adb2 25be 7c64 e63e
00000330: e87b cd3e 847e 0d3f ba5d 70bd c7f0 143c
00000340: ba04 d8be 025b 95bd 547a 9e3e 57af 80be
00000350: a60a 4dbe 8942 94be b146 00be 4997 a43e
00000360: d934 263f b33a 27be 1f60 1b3f 6a5e 00be
00000370: 82f4 d43e a4aa 043f 910c c83e 372f 7cbe
00000380: bb0c ae3e 93de 7fbe 017a c9bd 8886 abbe
00000390: 5044 60be 167f ea3e 0bf2 67be bb7f 9bbd
000003a0: dfd9 13be 1caa 8abe 1a8d bebe 13d9 f6be
000003b0: 503b 60bd 1196 cdbd 469e e83e b099 09be
000003c0: 2fe6 f0bd 4b24 7abe 655b e0bd 2ed2 09bf
000003d0: 43f7 32be d63c 853e 9105 a6be 057d 3abd
000003e0: 26f6 1fbd 42d2 1e3d 60b9 45be c935 13be
000003f0: 4b29 a3be 393b 353e adea cb3e 853f 453f
-0.14537208 0.30749908 -0.45939955 0.2698624 0.22814643 -0.13297331 -0.1735119 -0.37294707
-0.32924476 -0.32153 0.16915128 -0.23930618 0.33861017 -0.12846859 0.14619337 0.423589
-0.3780919 0.41385835 0.2377383 -0.21609984 0.30992714 0.41926634 0.3566948 0.034819264
0.31368688 0.5762657 0.32939667 0.32195434 0.278624 0.045217067 -0.1367037 -0.060663197
-0.42009515 0.44751564 0.40846863 -0.44005275 -0.08559847 0.028477915 -0.02245218 0.40071332
0.22074516 -0.1851395 0.21507157 -0.3840472 -0.01671784 0.30973333 0.5574353 0.395006
-0.18244833 0.16300237 -0.08535477 -0.44626915 0.1592059 -0.22154555 0.12639917 0.7834119
0.3166565 0.40845272 0.44856828 0.4087788 -0.28098774 0.1508087 0.6021246 0.07122743
-0.13870162 -0.24360788 0.8114287 0.57041603 -0.58810186 -0.040551323 -0.51770765 -0.56639993
-0.37006614 0.42071065 -0.38775522 0.580305 -0.50771534 0.48811126 -0.5201181 0.41766223
0.15104277 -0.08725737 0.32846898 -0.14501365 0.46363226 0.4586163 0.54632807 0.51400954
0.4202378 0.52782863 -0.058908217 0.13878192 -0.24557687 -0.7077351 -0.14166422 0.17768587
0.6834139 0.49684384 0.35189342 0.4441579 0.6224318 -0.038795076 0.65539217 -0.17552522
0.28330413 0.5423343 0.47117472 0.4054556 0.45802388 0.6521321 -0.34034082 0.5918583
0.024747547 0.77584916 -0.24140124 -0.27606001 0.32326767 -0.23049122 -0.44968837 0.29092866
-0.5031892 -0.45046654 -0.14696234 0.59262294 -0.20870322 -0.44152927 -0.4301716 -0.0029150099
-0.26967153 0.45735273 0.6235906 0.4969326 0.520171 -0.12338817 -0.045852065 0.44238478
0.42148364 0.35849926 0.403676 -0.47400478 -0.17092793 0.70939857 -0.14516455 0.9008607
0.33663696 -0.14796486 -0.5366662 -0.36005688 0.5461409 0.33353496 0.80405074 0.11693897
-0.30082908 0.40782386 0.18115965 0.85510045 -0.003173728 0.058729317 -0.42079738 -0.11010382
0.29483205 -0.37107205 -0.27549714 -0.22245166 -0.06477797 0.26604494 0.8176022 0.13855837
0.46770668 0.768535 0.3960068 0.33642292 0.0908463 0.03807942 0.2310507 0.15981704
-0.3310738 0.06879929 -0.22227389 0.6187286 -0.18471497 0.6429538 -0.12216933 -0.094965525
0.049024142 -0.36743334 -0.10597906 -0.12778491 0.5078384 0.0036209761 -0.19190192 -0.2014205
-0.10381029 1.1295024 0.69171536 0.22813658 -0.09431032 0.12926842 -0.06881774 0.28688997
-0.2412674 -0.14114289 -0.1618144 0.44998538 0.40133595 0.5527117 -0.058683135 0.009090609
-0.42191106 -0.07292749 0.30952704 -0.25133774 -0.20023593 -0.28957012 -0.12526967 0.3214667
0.6492439 -0.16330986 0.60693544 -0.12536016 0.41592795 0.51822877 0.39072087 -0.24627386
0.33994088 -0.24987249 -0.098377235 -0.33501077 -0.21901059 0.45800084 -0.22650926 -0.07592722
-0.1443858 -0.27082908 -0.37217027 -0.4821249 -0.054744065 -0.100383885 0.45433253 -0.13437533
-0.11762654 -0.24427907 -0.10954932 -0.53836334 -0.17477135 0.26022977 -0.32426122 -0.045529384
-0.039053105 0.038774736 -0.19308996 -0.14375986 -0.31867442 0.17698373 0.3982748 0.7705005

l1.bias f4 [8]
00000000: 1d95 c13e cc8d 163f 8f52 443f d16f 633f
00000010: 80b1 1e3f 158b 3c3f ecb7 0e3f 8dea 1b3f
0.37809077 0.58810115 0.76688474 0.88842493 0.61989594 0.7364972 0.5574939 0.6090477

l2.weight f4 [8, 8]
00000000: 7a3d 653f 27b0 47bf 59f3 06bf fbc9 6e3f
00000010: e651 6dbb cd28 b83e b425 b03f 6546 8d3f
00000020: 0161 3dbf f318 01bf cda9 123f 103b a03f
00000030: 1acf 633f 42a6 4e3f a10f 6c3f 3959 e6be
00000040: 4c84 e73d d6cb 68bf 6d1e ce3e 10f5 f93e
00000050: d51a 9bbf def3 88bf 80cc 603f 5279 7c3f
00000060: bff3 eb3e 5528 13bf 15db a0be ba41 ab3e
00000070: 10c8 8c3f 9f4e 7b3f d5d4 2bbe f646 383f
00000080: 6e84 0c3f afbf 133f 0936 9dbe 0648 2d3f
00000090: d64c ed3e 2c32 de3e 3aeb d3be ee4a acbf
000000a0: 1bd6 7bbf 2ebc 213f d28f b63f e02b 0e3f
000000b0: 240f 2abf 66a3 f9be 81dc 0fbf b264 be3e
000000c0: 4fae d73e 4c01 6e3f da21 18bf edb7 153f
000000d0: 7612 9abe 28d2 c93e 26d9 f73e 9974 a3bf
000000e0: 6691 de3e 3c19 873f 7096 0d3e ba51 953f
000000f0: e3ca 513f 68f7 3c3f f711 f73e 074e dbbe
0.8954693 -0.7800316 -0.5271507 0.9327695 -0.0036212145 0.3596863 1.3761506 1.1037108
-0.7397614 -0.50428694 0.57290345 1.2518024 0.88987887 0.8072244 0.9221135 -0.44989946
0.113045305 -0.9093603 0.40257588 0.4881978 -1.2117563 -1.0699422 0.8781204 0.9862262
0.460844 -0.57483417 -0.31417146 0.33448583 1.0998554 0.9816684 -0.16780408 0.7198328
0.5488957 0.5771436 -0.30705288 0.67688024 0.46347684 0.43397653 -0.413904 -1.3460367
-0.98373574 0.63177764 1.426264 0.555357 -0.6642935 -0.48757476 -0.5619584 0.371862
0.42125174 0.9297073 -0.59426653 0.58483773 -0.3009221 0.3941815 0.4840786 -1.2769958
0.43470305 1.0554576 0.13826919 1.1665566 0.81950206 0.7381501 0.48255894 -0.42832968

l2.bias f4 [8]
00000000: 249f 1a3f e85d 1e3e 47dd b63e 651f da3e
00000010: 31cd 57bc 947a 553f 08ca 7e3c ab9e a73e
0.6039908 0.1546551 0.35715696 0.42602077 -0.01317148 0.83390164 0.015551098 0.32738242

l3.weight f4 [7, 8]
00000000: 37b0 9bbd c8e1 cabe 3f8d 053f 4cc7 7dbe
00000010: 1702 0bbf 9bda 3d3f 09f7 46be 3aab a9bf
00000020: 052f 253f d9bb 5dbf e1b3 193f 8689 803e
00000030: f082 68bf b090 8abf 92ab fdbe 862e 5cbf
00000040: 5f93 56bf 2c40 093f a03c 9cbf a58e 823e
00000050: 30dd c73e a506 6dbe d80a 9abd bee2 093f
00000060: 0e6d 0c3f d431 db3e d9b2 9bbf ddce 4b3f
00000070: ff7b 60bf 4ad1 81bf fdfa 73bf f47f e13d
00000080: 8b49 56be 2b3a 86bf 6d17 a9be 2529 26bf
00000090: 1b64 5c3f be51 4fbf 0d60 463f 23e9 043f
000000a0: 9b11 75bf 5607 7d3e dd19 a4bf 94df 2cbf
000000b0: d2e5 93bf 2930 8c3f b91d 60bf 1209 4a3e
000000c0: f567 f93d c4e0 313f a286 813e 15da 06bf
000000d0: 93e5 64bf 67b9 323e 45ab 17bf 4812 78be
-0.0760197 -0.39625382 0.5216865 -0.24783057 -0.54300064 0.7416169 -0.19430174 -1.3255379
0.6452487 -0.8661476 0.600401 0.25104922 -0.90824795 -1.0825405 -0.4954496 -0.8600849
-0.8381862 0.53613544 -1.2206001 0.25499454 0.3903594 -0.23147066 -0.075215995 0.53861606
0.54853904 0.42811453 -1.2163955 0.79612523 -0.87689203 -1.0141995 -0.9530485 0.11010733
-0.20926492 -1.0486501 -0.33025685 -0.6490653 0.8609025 -0.80984104 0.7749031 0.5191824
-0.9572999 0.2470983 -1.2820393 -0.67528653 -1.155451 1.0952197 -0.87545353 0.19730023
0.12178031 0.6948359 0.2529803 -0.52676517 -0.894128 0.17453538 -0.5924571 -0.24225724

l3.bias f4 [7]
00000000: 3f58 49be 73ed 1b3e 303d cebe a997 acbe
00000010: e1c7 44be b762 d53e d636 e2be
-0.1966257 0.15227298 -0.40281057 -0.33709458 -0.19216873 0.41676876 -0.44182462
