data.pth (torch, 4823 bytes, 6 tensors)

l1.weight f4 [8, 50]
000000 a2 7d df be 68 d4 37 3f 0d 8e 07 3f 09 98 d7 3e
       -0.43650538 0.7180848 0.5295113 0.4210818
000010 1a d5 06 3f 42 59 54 3f 5d e3 a6 3e 6e bb dd 3e
       0.5266892 0.82948697 0.3259534 0.4330706
000020 0a ea f0 3e 3b 0e 0d 3f 9a a8 0c 3f 9b c5 83 3e
       0.47053558 0.5509984 0.54944766 0.25736699
000030 db 7d 78 3e 2e a6 af 3e bf 50 01 3f 3a 5f e5 3e
       0.2426676 0.34306473 0.50513834 0.44799215
000040 1a d8 5e 3f 20 fc 9c be 20 f2 10 3f e1 04 99 be
       0.87048495 -0.30661106 0.56619453 -0.29886535
000050 3d 58 f4 3e c3 7e 27 3f fa 16 29 3f db ba ef 3e
       0.4772357 0.654278 0.66050684 0.46822247
000060 f6 3a 86 3e 6f 14 04 bf 87 69 26 3f 69 c8 b6 be
       0.2621686 -0.5159368 0.6500477 -0.35699776
000070 09 bc ff 3e c1 4b 0d 3f e3 08 9c 3e bb f7 78 be
       0.49948147 0.55193716 0.3047553 -0.24313252
000080 46 51 fd 3e cc 48 23 3f 0f 6f 1e be 8d 5f f1 3e
       0.4947607 0.63782954 -0.15472053 0.47143212
000090 5b fb 59 3e e7 dc 9a 3e cf 60 30 3f 6d 49 0c bf
       0.21287291 0.3024666 0.6889772 -0.5479954
0000a0 6b b2 f2 3e df 80 2e 3f 66 e7 32 3f 78 78 59 bf
       0.47401747 0.6816539 0.69884336 -0.84949446
0000b0 bc a6 e9 bd bb 3a 01 3e 89 19 f3 be 56 d3 87 be
       -0.11408755 0.1262006 -0.4748042 -0.26528424
0000c0 f9 c9 78 3e a1 e0 10 38 b2 41 e0 3e f3 57 db be
       0.24295796 3.4541477e-05 0.43800122 -0.42840537
0000d0 ed a5 28 3e 22 6f cf 3e 3a 61 e8 3e a1 8c 02 bf
       0.16469546 0.40514475 0.45386678 -0.5099583
0000e0 13 1e 28 3e 4a 92 59 3e 50 2f 62 3e 4d fd 88 3e
       0.16417722 0.21247211 0.22088361 0.26755753
0000f0 b7 ef 12 3f 7d 10 23 3f af 9c ee 3e 39 45 11 3f
       0.57397026 0.63697034 0.46603915 0.5674625
000100 9a 4a 5b be 84 80 d8 3e eb 86 02 bf a2 51 74 3e
       -0.21415177 0.4228555 -0.5098712 0.23859265
000110 6c 98 41 3f bf dd a2 3e b1 5f 42 3f c0 be 38 3f
       0.756232 0.31809804 0.75927263 0.7216606
000120 c6 43 de 3e 3e 92 02 3e 6a 54 a1 3e 94 69 01 3f
       0.43411082 0.127511 0.31509715 0.50551724
000130 b0 e8 00 bf 6f 01 d0 3e 9e 67 bb be dc 37 f6 be
       -0.5035505 0.40626094 -0.3660249 -0.48089492
000140 c7 78 08 3f 58 2d e0 3e 5f a4 ca 3d fa 43 52 bd
       0.5330929 0.43784595 0.098946325 -0.05133436
000150 4a c1 d0 3e f2 3d 80 3e 9b e9 0f 3e f5 2d 93 3e
       0.40772468 0.2504726 0.14053957 0.28746
000160 1a 6d c3 be b5 e2 dc 3e 9d 80 fa bd 13 e0 a4 3e
       -0.38169175 0.43141714 -0.12231562 0.32202205
000170 9c b5 63 bd 83 a4 29 3f 98 f4 d5 3e 0b c9 96 3e
       -0.055593118 0.6626665 0.41788173 0.2945026
000180 f1 f6 07 3f 97 02 8a 3e 6f fe a2 3e bd 84 b4 3e
       0.5311118 0.269551 0.31834742 0.3525752
000190 40 b3 b0 3e cb 01 99 bd 57 92 88 be 02 7e c3 3e
       0.34511757 -0.07471045 -0.26674148 0.38182074
0001a0 1f be d0 bd 95 34 14 3f dc 62 8e be 00 7c 92 be
       -0.10192513 0.57892734 -0.278098 -0.2861023
0001b0 ff 4c c9 be 34 ba 7b be 9f 7b ee 3e 2a 56 3b be
       -0.39316556 -0.2458275 0.4657869 -0.18294588
0001c0 bd df 41 be 43 b5 65 bb 85 df 49 be 87 2e f4 3e
       -0.18933006 -0.0035050667 -0.19714172 0.47691748
0001d0 69 0e 21 3f e8 17 bf 3e c5 6e 3e 3f 99 b4 d1 3e
       0.62912613 0.37322927 0.7438777 0.40958098
0001e0 14 20 3f 3f 3a ac 33 3f ba bf ce 3e 9a 92 f0 bd
       0.7465832 0.7018467 0.4038065 -0.11746712
0001f0 64 eb c4 3e 0e 80 d5 3e 8d db a4 be 8c 85 bb 3e
       0.3846084 0.4169926 -0.32198754 0.36625326
000200 c0 e1 d5 be 73 3a 07 3f 08 ab 33 be b8 81 b6 3e
       -0.41773796 0.5282356 -0.17545712 0.35645843
000210 35 2e 0a bf de 16 95 be c0 f8 b3 3e eb e2 c6 be
       -0.53976756 -0.2911901 0.3515072 -0.38845
000220 4f 31 79 be 5c 9e 2f be d5 60 a4 3e b0 34 c5 3e
       -0.24335216 -0.17150253 0.32105127 0.3851676
000230 0f 20 27 be b8 9e 90 be dc c2 b4 bd 05 2f 2a 3f
       -0.16320823 -0.28246093 -0.08826229 0.66477996
000240 49 75 ee 3e 78 93 95 3e 54 d0 dd 3e 27 07 66 3e
       0.46573856 0.29214072 0.43323004 0.22463666
000250 a8 0c c2 bd 90 24 ca 3d 1e 94 12 3f f6 67 fd 3e
       -0.0947507 0.09870255 0.5725726 0.49493378
000260 27 9f ac be 6d ce f4 3d 98 d3 44 be d5 60 92 be
       -0.33715174 0.11953435 -0.19221342 -0.28589502
000270 b8 e2 e2 bd 95 6a 81 be f9 6d ba be 0e 76 c6 be
       -0.110783994 -0.25276628 -0.36412027 -0.38761944
000280 09 74 ac 3d 65 04 06 3f fe ec 57 bd cb 59 26 3f
       0.084205694 0.52350456 -0.052716248 0.64980763
000290 32 fe a1 3e 19 1c 57 3e 30 56 8a be c0 ed 4c 3e
       0.31639248 0.21006812 -0.2701888 0.2001257
0002a0 b4 5a 81 bd 84 c1 b6 3e 95 27 e4 bd 53 25 67 3b
       -0.063161284 0.35694516 -0.11140362 0.003527005
0002b0 e3 3e 53 3f e2 1c 8c be 0e d3 25 3e 82 95 92 3e
       0.8251783 -0.27365786 0.16193792 0.2862969
0002c0 bd 75 fc 3e 15 38 36 3e d5 39 03 3f 67 5b 6a be
       0.49308577 0.17794831 0.5126012 -0.2288643
0002d0 e7 84 1e 3f 84 3e f3 3e 25 d9 e0 be c1 d1 f7 3e
       0.6192154 0.47508633 -0.43915668 0.48402217
0002e0 70 15 45 3e 2f 9e 8b be 85 27 a8 bd 9a 6c ac bd
       0.19246459 -0.27269122 -0.08210663 -0.084191516
0002f0 ca f2 4f be d8 2f 90 3e 25 80 dd 3e 4a ab 1a 3d
       -0.2030746 0.28161502 0.4326183 0.03776101
000300 d8 72 0a 3f f4 3b 42 3f c6 1b f8 3e 25 48 10 3e
       0.5408149 0.7587273 0.4845869 0.14090021
000310 0c 1b 86 3e b2 5b 5c 3e 6d cf 56 bd 1e 33 67 3e
       0.2619251 0.21519354 -0.05244391 0.22578093
000320 6e d5 11 be 48 9f b7 be 81 c1 a0 3e 6a da cf 3e
       -0.14241573 -0.3586371 0.31397632 0.40596324
000330 e4 07 09 3f 45 b7 c0 be b9 a2 d6 3e 94 de 9a 3e
       0.53527665 -0.37639824 0.41921023 0.3024794
000340 21 76 0d 3f 32 8c d9 3e 2b b5 f7 3e fe 7e 6b 3b
       0.55258375 0.42489773 0.48380408 0.0035933848
000350 b3 d5 0f 3f bc 75 1a be 5f 38 03 bd e1 94 eb 3e
       0.56185454 -0.15083975 -0.03203618 0.46012023
000360 78 b5 c0 be e4 0b b5 3e d0 e0 49 3f 13 49 f0 bb
       -0.3763845 0.35360634 0.7885866 -0.00733293
000370 2e 9f 4d 3f e7 e4 5d 3f 8d 26 24 be 90 ab 8c 3e
       0.80321014 0.866774 -0.16030331 0.27474642
000380 14 5d e4 3e b7 04 0c 3f 9c 52 ff be f5 ed 18 3e
       0.44602263 0.54694694 -0.49867713 0.14934523
000390 db e6 02 bf be a0 ac be d2 8c 38 bd ee e6 05 be
       -0.5113351 -0.33716387 -0.04505617 -0.13076374
0003a0 e3 e7 d5 3e 84 98 33 be f4 41 08 3e e8 3f c7 3e
       0.41778478 -0.17538649 0.13306409 0.38915944
0003b0 40 7e bd 3e 97 a1 e1 3e 46 6b f0 be bb 12 13 3f
       0.37010384 0.44068596 -0.46956843 0.57450455
0003c0 56 a7 67 bd e8 ba 13 3e 5f 68 e6 bd 3d a1 fc be
       -0.05655607 0.14426768 -0.11250376 -0.49341765
0003d0 01 16 68 be f3 26 23 3e 28 d1 09 3f db 1e ea 3e
       -0.22664644 0.15932827 0.5383477 0.45726666
0003e0 26 53 9d 3e 8c 5c dc 3e 85 52 08 be 9f 0b bb be
       0.307275 0.43039358 -0.13312729 -0.36532304
0003f0 6f 32 e4 3e 21 e4 8c 3e fc 93 0f 3f cc 5b d4 be
       0.44569728 0.275178 0.5608518 -0.41476285

l1.bias f4 [8]
000000 8d 78 59 3f 00 8d 02 3f c5 b3 67 3f ea 6a 1a 3f
       0.8494957 0.509964 0.9050868 0.6031939
000010 0a b6 c0 3e e4 95 2d 3f 53 7f 31 3f d5 ad 6a 3f
       0.37638885 0.6780684 0.69334906 0.91671497

l2.weight f4 [8, 8]
000000 3b 2f 8e 3f 92 b4 a1 be b1 5f cb bd ac 1d 55 bf
       1.1108164 -0.31583077 -0.09930361 -0.832484
000010 d8 27 69 3e 03 1a 4f 3f dc b5 2a 3f 00 ab 08 3f
       0.22769105 0.80899066 0.66683745 0.53385925
000020 40 cd 9f bd 20 b3 7b be d6 2b 1f be 4a d6 8f be
       -0.0780282 -0.2458005 -0.15544066 -0.28093177
000030 1a b5 7b be e4 c7 ac bd c0 b6 70 bc af 8b 86 be
       -0.24580804 -0.084365636 -0.0146920085 -0.26278445
000040 a0 07 ba be 20 2a 88 3e 1e 73 b1 3f ad 1a be be
       -0.36333942 0.2659464 1.3863256 -0.37129727
000050 a7 9c 54 3f 18 97 7b 3f 9d 87 36 bc e0 4e a0 3f
       0.8305153 0.98277426 -0.011140731 1.2524071
000060 34 f0 66 3e 19 0f 6b 3f 16 e7 07 3f 51 58 3f 3e
       0.22552568 0.9181991 0.53086984 0.18686034
000070 af aa 82 3f a9 f2 24 3f 4e 3c 26 be 43 e9 5c bf
       1.0208338 0.6443277 -0.16233942 -0.8629343
000080 01 ed 8d bf 64 e5 8a 3f c8 7a c9 3e 31 91 86 3f
       -1.1087953 1.0851254 0.39351487 1.0513059
000090 90 c6 c1 3e f6 8e 93 be 08 76 27 3f e2 55 b7 3e
       0.37846804 -0.28820008 0.65414476 0.3580771
0000a0 a1 1f 19 3f 03 e7 61 3f 1b 8f 04 bf 62 46 86 be
       0.59813887 0.8824312 -0.5178086 -0.26225573
0000b0 4f 51 77 3f 14 df 82 3f 1c 21 8c 3f 41 e8 08 bf
       0.9660844 1.0224328 1.0947604 -0.5347939
0000c0 d5 a5 1d 3f 1d 9c 91 be 66 0b a0 3f 71 4e b3 3f
       0.61581165 -0.28439417 1.2503479 1.4008313
0000d0 28 51 53 bf 02 31 8a be cb 41 50 3f fa 1c af 3f
       -0.8254571 -0.26990515 0.8135039 1.3680718
0000e0 76 b6 8a 3b c5 f1 1a 3f b6 95 a1 3e f4 07 ba 3e
       0.004233177 0.6052516 0.31559533 0.36334193
0000f0 a2 3b 4e 3f 9d b1 b2 3e f9 d2 35 bf d4 69 af bf
       0.8055974 0.34901133 -0.71025044 -1.3704171

l2.bias f4 [8]
000000 ee d6 87 3e 92 ab 20 be 2d 76 f5 3e 6b 7f 27 3e
       0.26531166 -0.15690449 0.47941723 0.163572
000010 dc 86 43 3e 78 be 84 3e 93 c8 15 3f ad 32 fa ba
       0.19094414 0.25926566 0.58509177 -0.0019088589

l3.weight f4 [7, 8]
000000 b4 5e 0a bf c8 43 3a 3d b3 bd 62 bf 86 b5 73 3e
       -0.54050756 0.045474797 -0.8857071 0.23799714
000010 a6 37 d6 3c 74 76 cf 3c a7 8b ba 3e c7 4b 86 3e
       0.026149582 0.025325038 0.3643467 0.2622969
000020 98 a0 be 3e fb 67 8b 3e 9c d1 81 bf 05 6d d1 bf
       0.37231898 0.27227768 -1.0142093 -1.6361395
000030 ed aa 62 be 6e 85 cf 3e e4 d4 2d 3f 54 da f9 be
       -0.22135516 0.40531486 0.6790297 -0.48799384
000040 1c d1 d9 3e 01 88 4d be 95 98 f8 3e eb 2d b4 bf
       0.4254235 -0.20071413 0.4855391 -1.4076513
000050 8b 2f 85 bf 6e 18 a5 bf f0 49 4d 3f b4 39 d5 be
       -1.0405134 -1.289808 0.80190945 -0.41645586
000060 d0 b0 32 3e c0 f0 9f bd 14 1b f0 3e 59 8f 54 bc
       0.17450261 -0.07809591 0.4689566 -0.01297363
000070 9c f1 8f be 6a a5 b2 3e c5 97 c4 3d ff 7c 8c bf
       -0.2811402 0.34891826 0.0959926 -1.0975646
000080 15 da 65 bf 3e 72 26 be b9 82 89 3e 99 b5 e5 3e
       -0.8978589 -0.16254517 0.26857546 0.4486511
000090 63 10 84 3d 21 b2 09 be 7f 7c 43 bf 1b e9 2c 3f
       0.06448438 -0.13446857 -0.7636184 0.6754319
0000a0 7f 02 37 3f 07 c6 06 be 7a 7f 8a 3c d8 a6 e4 3d
       0.71488184 -0.13161479 0.016906489 0.111646354
0000b0 9e 0b 61 bf 5a 78 20 3f 04 c9 93 bf d8 23 63 3d
       -0.8790835 0.6268364 -1.154572 0.055454105
0000c0 41 b9 99 bf df a8 75 be c8 3e b9 3e 09 19 79 bf
       -1.200966 -0.239902 0.3618071 -0.97303826
0000d0 a4 e6 46 3f 3f 88 62 bf d8 c4 22 3f 79 f3 4f bf
       0.7769568 -0.88489145 0.6358161 -0.81230885

l3.bias f4 [7]
000000 17 4e c6 3e 1c 03 9b 3e ac be f6 3e 7c ac 93 be
       0.38731453 0.3027581 0.48192346 -0.28842533
000010 bb cf d1 37 0b 31 3b 3e a5 49 b6 bd
       2.5011474e-05 0.18280427 -0.08900765
