data.pth (torch, 4823 bytes, 6 tensors)

l1.weight f4 [8, 50]
0	0x3e89d580	0.269207
1	0x3e0e23fd	0.13880916
2	0xbe978851	-0.2959619
3	0x3f01d893	0.5072109
4	0x3d03dac5	0.032191057
5	0x3ebca5df	0.368453
6	0xbde4122e	-0.1113628
7	0xbe4b0163	-0.19824748
8	0xbf03efea	-0.51537955
9	0xbe4e8e4c	-0.2017147
10	0x3f0e2090	0.55518436
11	0xbe58576e	-0.21127102
12	0xbe8b68e8	-0.27228475
13	0xbe7140b8	-0.23559844
14	0xbe1c66ea	-0.15273634
15	0x3e9d1a84	0.30684292
16	0x3ed6c079	0.4194372
17	0xbe861f3c	-0.26195705
18	0x3f2cd4de	0.6751231
19	0x3eaaec6a	0.33383495
20	0x3f4b65ad	0.7945202
21	0x3eedc828	0.4644177
22	0x3e79580e	0.24349996
23	0xbe1412e4	-0.14460331
24	0x3f01972e	0.50621307
25	0xbe34d6d2	-0.17660072
26	0xbdf256c8	-0.118329585
27	0xbdb7cb8e	-0.08974372
28	0xbdfe039c	-0.12403032
29	0x3ebc511c	0.36780632
30	0xbea983aa	-0.33108264
31	0x3ea8adc5	0.32945076
32	0xbe9e91c0	-0.30970573
33	0xbd2e43cb	-0.04254512
34	0xbde5b548	-0.11216217
35	0xbec9baab	-0.3940023
36	0xbd98c3c1	-0.07459212
37	0xbe9894f3	-0.2980114
38	0x3e9261bd	0.28590193
39	0xbe89b692	-0.26897103
40	0x3d406d11	0.046979014
41	0xbe616dbc	-0.22014517
42	0xbd55e787	-0.052222755
43	0x3f2e91d4	0.68191266
44	0x3ece6ec3	0.4031888
45	0x3da35df8	0.079769075
46	0xbe8b17f5	-0.27166715
47	0xbdb9ca2f	-0.090717666
48	0xbe076264	-0.13221127
49	0x3e06c074	0.13159353
50	0xbe6e2398	-0.23255765
51	0x3ed656cd	0.418631
52	0xbcb5067a	-0.022097815
53	0x3e3eab2a	0.18619981
54	0x3eb73493	0.35782298
55	0xbf1328ff	-0.5748443
56	0x3c2213d8	0.009892426
57	0x3e2896a0	0.16463709
58	0xbea76ec4	-0.32701695
59	0x3c0a3be8	0.008437134
60	0x3ef3a11c	0.47583854
61	0xbe2382b8	-0.15967834
62	0x3f170722	0.5899526
63	0xbbb4be66	-0.0055158613
64	0x3ee589ef	0.44831797
65	0x3ee2be50	0.44285822
66	0xbf1f4326	-0.62211835
67	0x3f3f1799	0.7464538
68	0x3f09cec1	0.53831106
69	0xbe0baa25	-0.13639124
70	0x3ee64a5d	0.4497861
71	0x3f19e4a6	0.60114515
72	0x3ecab963	0.39594564
73	0x3cd1943a	0.025583375
74	0x3e7b6320	0.24549532
75	0x3eb53ccd	0.3539795
76	0x3f183c8b	0.5946738
77	0x3e1fa24b	0.15589254
78	0x3e8c54a7	0.27408335
79	0xbe46c982	-0.19412807
80	0x3b9fc115	0.004875312
81	0xbe056a51	-0.13028838
82	0xbd8f40ae	-0.069947585
83	0x3f11a590	0.56893253
84	0x3ca76bf1	0.020437213
85	0xbe4543ab	-0.19264095
86	0x3e1e87e8	0.15481532
87	0x3cfce302	0.030869965
88	0xbe2ed5e8	-0.17073786
89	0x3f1fbe90	0.6240015
90	0x3ef35db0	0.47532415
91	0x3d3d5c63	0.046230685
92	0x3f1eaa3d	0.61978513
93	0xbf2e944d	-0.6819504
94	0xbdda7e46	-0.10668616
95	0x3ec4dc4a	0.38449317
96	0x3f1aa746	0.6041149
97	0x3f26ede3	0.65206736
98	0x3e102fec	0.1408078
99	0x3ea587bd	0.32330123
100	0x3ea694bb	0.32535347
101	0x3dbaa254	0.09112993
102	0x3f150b55	0.58220416
103	0xbe809a5b	-0.25117764
104	0x3db08af8	0.08620256
105	0x3f70b4e0	0.94025993
106	0x3ea8a846	0.32940882
107	0x3f1343bd	0.57525235
108	0x3f11bc96	0.56928384
109	0x3f19c085	0.60059386
110	0xbeaabb66	-0.333461
111	0x3e0df341	0.13862325
112	0x3f1b326a	0.606238
113	0xbc396979	-0.011316651
114	0x3e155c48	0.14585984
115	0xbe906df4	-0.28208888
116	0x3f51317d	0.8171614
117	0x3e8d9bac	0.2765783
118	0xbf237dc8	-0.638638
119	0x3ec37ee4	0.38182747
120	0xbf23c0c7	-0.6396603
121	0xbf128708	-0.5723729
122	0xbf3ac1c5	-0.7295192
123	0x3f029893	0.5101406
124	0xbe59e5e3	-0.21279101
125	0x3e7c3f2d	0.24633475
126	0xbd15f9e3	-0.036615264
127	0x3e667f04	0.2250939
128	0xbeb8ce47	-0.36094877
129	0x3f225c79	0.6342235
130	0xbd6184d7	-0.055058327
131	0x3e86b211	0.2630773
132	0x3f207f63	0.62694377
133	0x3e55625d	0.20838304
134	0x3e68477a	0.22683516
135	0x3f4994b0	0.78742504
136	0x3ecf18e6	0.40448684
137	0x3ed84adc	0.42244613
138	0x3f2b5b50	0.66936207
139	0x3e722364	0.23646313
140	0x3bbe2cdc	0.0058036875
141	0x3f02b0fb	0.510513
142	0x3e5b1cc7	0.21397696
143	0x3eef2c90	0.46713686
144	0x3e8748f2	0.2642284
145	0xbe191557	-0.14949547
146	0x3e529b5d	0.20567079
147	0x3e46496a	0.19363943
148	0x3ecc62c2	0.39919096
149	0x3f0e8a05	0.5567935
150	0xbe60cd33	-0.21953277
151	0xbea812b3	-0.32826766
152	0xbf074d11	-0.5285197
153	0x3e866c5e	0.26254553
154	0x3ee1ef69	0.44127968
155	0x3dad7df7	0.084712915
156	0xbd96cab9	-0.07362885
157	0xbeb82753	-0.35967502
158	0xbeef7b0f	-0.46773574
159	0xbecec985	-0.40388122
160	0x3ed2f367	0.41201326
161	0x3edb4c3a	0.42831594
162	0x3ee34700	0.44390106
163	0x3ef590e7	0.47962114
164	0xbd9f52dd	-0.07779477
165	0x3e3b9191	0.18317248
166	0xbcd1c3e9	-0.025606113
167	0x3ed9ca78	0.42537284
168	0x3ee83b4b	0.45357737
169	0xbe612d79	-0.21990003
170	0x3ed460da	0.41480142
171	0x3eeed885	0.46649566
172	0x3f044804	0.5167239
173	0xbd02298a	-0.031777896
174	0x3e95eda0	0.29282856
175	0x3f30fc52	0.6913501
176	0xbec1f752	-0.37884003
177	0x3edefab0	0.43550634
178	0xbec28ff3	-0.3800045
179	0xbdcb539c	-0.099280566
180	0x3e864c59	0.26230124
181	0x3c962130	0.018326372
182	0xbefeeb9f	-0.4978914
183	0xbe86f609	-0.26359585
184	0x3f15ac35	0.5846589
185	0xbece7d92	-0.40330178
186	0xbe783f5c	-0.2424292
187	0xbe159b08	-0.14609921
188	0x3d062689	0.032751594
189	0x3f3c41be	0.73537815
190	0xbe2a1e11	-0.16613032
191	0x3d79f3a4	0.06102337
192	0xbe16b08c	-0.14715785
193	0xbf2d8349	-0.6777845
194	0xbe723ccf	-0.23656009
195	0x3f1365e6	0.5757736
196	0x3f3685a9	0.712977
197	0x3ebf7409	0.37393215
198	0xbdc1c59d	-0.0946152
199	0x3d682abf	0.05668139
200	0x3f0f0f67	0.5588288
201	0x3f184570	0.59480953
202	0xbeceba5c	-0.40376556
203	0x3c23302d	0.0099602165
204	0xbdebe814	-0.11518875
205	0xbeffa447	-0.4993002
206	0xbdc16d93	-0.09444728
207	0xbe530dcf	-0.20610736
208	0xbeca2ba7	-0.3948643
209	0xbdca8aa3	-0.09889724
210	0x3e2eeb19	0.1708187
211	0x3d121521	0.03566468
212	0xbe86070b	-0.26177248
213	0xbdea4be8	-0.11440259
214	0x3e933aba	0.28755742
215	0xbcade9a7	-0.021229578
216	0xbeffad15	-0.4993674
217	0xbe74c34c	-0.23902625
218	0xbbc2e53e	-0.005947738
219	0x3ea7ed94	0.32798445
220	0xbda6b38a	-0.08139713
221	0x3dfc55fa	0.12321086
222	0xbc1e9ff0	-0.009681687
223	0xbe23aa92	-0.15983036
224	0x3e3b2aa7	0.1827799
225	0xbe42d90b	-0.19028108
226	0x3ec8e9f4	0.39240992
227	0xbdd9bfd7	-0.10632294
228	0x3edbb222	0.42909342
229	0xbea35a3b	-0.31904778
230	0xbe1336d7	-0.14376388
231	0x3ee9f7ab	0.45696768
232	0xbe3e37fd	-0.18576045
233	0x3ebfa224	0.3742839
234	0x3d1be233	0.038057517
235	0xbec19c79	-0.37814692
236	0xbe18d830	-0.14926219
237	0xbd0113e1	-0.0315131
238	0xbf068d24	-0.52559114
239	0xbe90c2bf	-0.2827358
240	0x3e63f64c	0.22261924
241	0xbe81bfe6	-0.2534172
242	0x3efbb846	0.49164027
243	0x3f777292	0.96659195
244	0x3f01951e	0.5061816
245	0x3e509d65	0.20372541
246	0xbeaff6c4	-0.34367955
247	0xbe49cd68	-0.19707263
248	0xbd8626e0	-0.065503836
249	0x3ec717b5	0.38885275
250	0x3eb03529	0.34415558
251	0xbd1ca553	-0.038243603
252	0xbea685d2	-0.32523972
253	0x3eb61cd3	0.35568866
254	0x3dde6369	0.10858805
255	0x3f474fff	0.7785644

l1.bias f4 [8]
0	0x3f42befd	0.76072675
1	0x3f1fadbc	0.6237447
2	0x3f23c120	0.6396656
3	0x3f2d0092	0.67578995
4	0x3effa94f	0.4993386
5	0x3f477672	0.7791511
6	0x3f24a4c5	0.6431392
7	0x3f294a53	0.66129035

l2.weight f4 [8, 8]
0	0x3f46b190	0.7761469
1	0x3f7eb46b	0.99494046
2	0xbf70362e	-0.9383267
3	0x3f3396d0	0.70151997
4	0xbe0542b7	-0.13013731
5	0x3e1c4d81	0.1526394
6	0x3f6b1ffe	0.9184569
7	0xbf069bf4	-0.52581716
8	0x3f1b98db	0.60780114
9	0x3f7de67f	0.99179834
10	0x3bc60f75	0.006044323
11	0x3f849bae	1.036001
12	0xbf926236	-1.1436222
13	0x3f98a284	1.1924596
14	0x3ea0984c	0.31366193
15	0xbf82e77e	-1.0226896
16	0xbf2e26ef	-0.6802816
17	0x3db6ce99	0.08926124
18	0x3f2c69c6	0.673489
19	0x3ceb153d	0.02869665
20	0xbee486fe	-0.4463424
21	0xbf37112d	-0.71510583
22	0x3f135f81	0.575676
23	0x3ec78fac	0.389768
24	0xbe826049	-0.25464085
25	0x3db77cce	0.089593515
26	0x3de8f12a	0.113741234
27	0xbe9091f8	-0.28236365
28	0x3d988fa8	0.07449275
29	0xbea8dc88	-0.32980752
30	0xbe2ebbc0	-0.17063808
31	0xbe8b62aa	-0.27223712
32	0x3fb5d872	1.4206679
33	0xbe14df52	-0.14538315
34	0x3eccfe41	0.4003773
35	0xbf4d2e4c	-0.8014877
36	0x3f73b646	0.952
37	0x3f7b5678	0.98178816
38	0x3f70a683	0.94004077
39	0x3f0110ef	0.50416464
40	0xbf005691	-0.5013209
41	0x3f3a3024	0.72729707
42	0x3f2f88c2	0.6856805
43	0xbe58cd3d	-0.21172042
44	0xbe890de7	-0.2676842
45	0xbf981fbb	-1.1884683
46	0x3f88d114	1.0688806
47	0x3d8bc1cf	0.068240754
48	0x3ee3ceb2	0.44493634
49	0x3d9f410e	0.0777608
50	0x3f753940	0.9579048
51	0x3f5ea9e4	0.8697798
52	0xbf570a03	-0.8399965
53	0x3f5018c4	0.8128779
54	0xbf56a3ce	-0.83843696
55	0x3f2ac705	0.6670993
56	0x3f018a9e	0.5060214
57	0x3f40a6fa	0.75254786
58	0xbf626576	-0.8843607
59	0x3e091be9	0.13389553
60	0x3f62a96b	0.8853976
61	0xbdc4ea26	-0.09614973
62	0x3f33f0ee	0.70289505
63	0x3fa8319c	1.314014

l2.bias f4 [8]
0	0xbd5a29c5	-0.05326249
1	0x3f1ed102	0.6203767
2	0xbe1573d1	-0.14594962
3	0xbe39e3b6	-0.18153271
4	0x3e80d00c	0.25158727
5	0x3f10e67e	0.56601703
6	0x3f0296d5	0.510114
7	0x3e88c3d9	0.2671192

l3.weight f4 [7, 8]
0	0xbee21596	-0.44157094
1	0xbf45ae12	-0.77218735
2	0x3e917dd9	0.28416327
3	0xbe9cfe00	-0.30662537
4	0xbef7b3c7	-0.48379347
5	0xbf0d7c4b	-0.5526778
6	0x3f0a7621	0.540865
7	0x3f03981a	0.51403964
8	0x3e347784	0.17623717
9	0xbf2b72bb	-0.6697194
10	0xbe584852	-0.21121338
11	0x3e9dd080	0.30823135
12	0x3e3f5d37	0.18687902
13	0x3eba1381	0.36343005
14	0xbfad35fd	-1.3532101
15	0x3f077026	0.529055
16	0xbf8a86fb	-1.0822443
17	0x3e914428	0.28372312
18	0xbfa0050a	-1.2501538
19	0xbe0c86d2	-0.13723305
20	0x3ee559da	0.44795114
21	0xbfae9393	-1.3638786
22	0x3f5a3f14	0.852525
23	0xbf90ffe0	-1.1328087
24	0x3f4963c9	0.78667885
25	0x3ee25c6a	0.4421113
26	0xbfe359e1	-1.7761804
27	0x3d49c8e2	0.049263842
28	0x3ba97ff6	0.005172725
29	0xbf4bd9ac	-0.79629016
30	0xbf1d351e	-0.61409175
31	0x3ea8c6fe	0.3296432
32	0x3e7271f7	0.23676287
33	0x3f3dfddc	0.74215484
34	0xbf3fc183	-0.7490465
35	0x3e572b41	0.21012594
36	0xbfb8cad9	-1.4436904
37	0xbe83c59c	-0.257367
38	0x3ed83506	0.42227954
39	0xbef4eebf	-0.478384
40	0xbf329716	-0.6976179
41	0xbd8a55c9	-0.067546435
42	0x3eb712d1	0.35756543
43	0xbe20a7df	-0.15689038
44	0x3ce0b766	0.027431201
45	0x3f878c84	1.0589757
46	0xbe8665a3	-0.26249418
47	0xbf52b0eb	-0.82301205
48	0xbf4dc472	-0.80377877
49	0xbf8d7ca4	-1.1053662
50	0xbfa615d9	-1.2975417
51	0x3e7f67a2	0.24941877
52	0x3f8998ce	1.0749757
53	0xbf9b3507	-1.2125558
54	0xbe5afcc3	-0.21385483
55	0x3e0da940	0.13834095

l3.bias f4 [7]
0	0x3d183f24	0.03716959
1	0xbee2a9a0	-0.4427004
2	0x3de5b22e	0.11215626
3	0x3e0b665c	0.13613266
4	0xbe36c480	-0.17848396
5	0x3e963cdc	0.29343307
6	0x3ece787d	0.403263
