data.pth (torch, 4823 bytes, 6 tensors)

l1.weight f4 [8, 50]
-0.25856608 0.5127678 0.32289898 0.15310976 0.319339 -0.44241318 0.23589206 0.25509787
0.29072547 0.33435923 0.0027719794 0.544175 0.45185515 0.7172643 0.51988965 -0.1533072
-0.4423793 -0.18170792 -0.24753623 -0.056579467 0.25559545 -0.088895686 0.19100925 0.23851508
0.31097475 -0.20698218 0.67344326 -0.025656207 0.43700278 -0.3700939 0.63153934 -0.12271442
0.51206744 0.6685785 -0.094669916 0.3812985 0.40562752 0.50145674 -0.39261976 -0.3713895
0.40084976 0.6614221 0.69352955 -0.38178387 -0.07279267 -0.051975332 -0.29558653 -0.30696496
0.47268137 0.32029656 0.40879405 0.12420823 -0.040133823 -0.13936892 -0.5173262 0.78000987
0.10019244 0.0049438663 -0.07819699 -0.075084455 -0.40311927 0.22018492 -0.3601045 0.20926481
-0.11811876 -0.24436209 0.7541499 -0.18853289 -0.6475154 0.37248135 -0.5946405 -0.64749104
-0.3951683 0.012107404 -0.21553187 -0.24093693 -0.3494516 -0.05388084 -0.1803258 0.6109016
0.17822935 0.1910274 0.02387909 -0.13054422 0.004620984 0.1474416 0.097681515 -0.0166344
0.5685646 -0.34678525 -0.09633185 0.20749384 -0.23840077 0.61633307 0.3265885 -0.288893
-0.20563592 -0.12291498 0.07599065 0.2650179 0.32997653 -0.20863912 0.22925144 -0.26624507
0.13871008 -0.23840661 0.33618328 0.21432318 0.16246043 0.39580327 -0.31557736 -0.100661986
0.49714795 0.0023075272 -0.14673938 -0.11834251 -0.30490154 0.4898394 -0.45554742 0.2090505
-0.3791852 -0.451638 -0.5542601 0.15250982 -0.28629604 0.37448 -0.2930433 0.46744654
-0.42345864 -0.24122138 -0.028748408 0.27938217 0.21805176 -0.1520801 0.48335382 0.25537568
0.2715908 0.3137248 -0.101329066 0.5847126 0.03309498 0.20235117 -0.09262706 0.7595809
0.43604892 0.31107733 0.46127075 0.38838065 0.27110836 0.28937992 0.25251067 0.42123318
-0.30243868 -0.119084984 -0.53183216 0.91315097 -0.050736193 -0.37074035 -0.121814355 -0.33553
-0.32867134 0.6517822 -0.15065786 0.6534953 0.40889683 -0.37244317 0.9467352 -0.19073215
-0.7010447 0.26961988 -0.6643063 -0.7010728 0.37855598 -0.2480623 -0.2822669 -0.24241896
0.57713 -0.13668433 0.42006272 0.42232057 0.55318755 0.30123734 -0.3686169 0.28179672
0.062091216 -0.21244237 -0.18371718 -0.2143149 0.3813308 -0.40001208 0.36295184 0.3355829
0.50787497 0.78363067 0.44137558 -0.29898313 -0.31543478 -0.28224656 -0.004259782 0.16493596
0.45156318 0.24792258 0.2601388 -0.22493115 0.2847805 -0.5273882 0.32721725 0.37533212
0.47806758 0.25407878 -0.15179214 -0.026459191 0.42010126 -0.17438412 0.34929875 -0.33288482
-0.5274641 0.4640107 -0.39256188 0.35519737 -0.40971163 -0.3815288 -0.56966597 0.2180526
-0.29848564 0.6574274 0.28004295 0.48572534 -0.25338367 -0.40123382 -0.06319337 0.27686825
0.48379755 0.5095007 0.49185652 0.5628517 0.18963744 0.3060961 -0.25265858 0.35168013
0.19487536 0.30558378 0.4526293 0.7848517 0.37189952 0.16145168 0.66907185 0.5121744
0.1546316 0.49704108 -0.32859552 -0.29788962 0.4758662 0.42744973 0.5177551 0.7094804
00000000: c662 84be c044 033f 0453 a53e cec8 1c3e
00000010: 6780 a33e fb83 e2be b08d 713e 309c 823e
00000020: f8d9 943e 2231 ab3e 19aa 353b 0e4f 0b3f
00000030: 8f59 e73e a29e 373f 7d17 053f 90fc 1cbe
00000040: 8a7f e2be a411 3abe 237a 7dbe dfbf 67bd
00000050: 68dd 823e f10e b6bd ee97 433e 4c3d 743e
00000060: 1538 9f3e 23f3 53be c766 2c3f f72c d2bc
00000070: d4be df3e f37c bdbe 90ac 213f b351 fbbd
00000080: da16 033f f627 2b3f 4de2 c1bd 8f39 c33e
00000090: 69ae cf3e 785f 003f 7505 c9be c426 bebe
000000a0: 2e3c cd3e f552 293f 278b 313f 2d79 c3be
000000b0: 5314 95bd 16e4 54bd 1e57 97be 832a 9dbe
000000c0: 4b03 f23e e9fd a33e 744d d13e e260 fe3d
000000d0: 5d63 24bd bab6 0ebe 7d6f 04bf baae 473f
000000e0: b231 cd3d 2800 a23b be25 a0bd e1c5 99bd
000000f0: a665 cebe 2878 613e 9e5f b8be 8449 563e
00000100: 40e8 f1bd 0e3a 7abe f80f 413f c40e 41be
00000110: 92c3 25bf e0b5 be3e 5c3a 18bf f9c1 25bf
00000120: 8053 cabe 225e 463c 63b4 5cbe 2cb8 76be
00000130: 52eb b2be 28b2 5cbd 54a7 38be 0c64 1c3f
00000140: c181 363e b09c 433e 159e c33c 62ad 05be
00000150: a06b 973b eefa 163e 3f0d c83d dd44 88bc
00000160: 738d 113f d68d b1be a249 c5bd 4479 543e
00000170: 551f 74be 01c8 1d3f 9c36 a73e c9e9 93be
00000180: 3992 52be d9ba fbbd fca0 9b3d 6db0 873e
00000190: aff2 a83e 7ea5 55be e4c0 6a3e 4651 88be
000001a0: 040a 0e3e dd20 74be 3720 ac3e 8977 5b3e
000001b0: 075c 263e baa6 ca3e 5b93 a1be df27 cebd
000001c0: 2d8a fe3e e239 173b d942 16be 8f5d f2bd
000001d0: 0e1c 9cbe 3bcc fa3e 833d e9be 5611 563e
000001e0: 9024 c2be 193d e7be fde3 0dbf 892b 1c3e
000001f0: 6595 92be d8bb bf3e c509 96be 2755 ef3e
00000200: 92cf d8be bd02 77be c881 ebbc 2e0b 8f3e
00000210: f648 5f3e e3ba 1bbe 277a f73e 9ac0 823e
00000220: f30d 8b3e 89a0 a03e 9d85 cfbd baaf 153f
00000230: 9a8e 073d 2535 4f3e 42b3 bdbd e573 423f
00000240: ce41 df3e 8745 9f3e ae2b ec3e d4d9 c63e
00000250: b7ce 8a3e 9b29 943e 1449 813e e0ab d73e
00000260: 3ed9 9abe d4e2 f3bd 2726 08bf 43c4 693f
00000270: c1d0 4fbd aed1 bdbe ce79 f9bd 97ca abbe
00000280: 9c47 a8be 33db 263f 0e46 1abe 784b 273f
00000290: ed5a d13e dfb0 bebe 3d5d 723f 4a4f 43be
000002a0: aa77 33bf 9e0b 8a3e fa0f 2abf 8279 33bf
000002b0: 17d2 c13e 0b04 7ebe 4a85 90be ad3c 78be
000002c0: cbbe 133f faf6 0bbe 7612 d73e 673a d83e
000002d0: b39d 0d3f c83b 9a3e 5bbb bcbe a947 903e
000002e0: 5c53 7e3d 7e8a 59be 5b20 3cbe 5d75 5bbe
000002f0: ca3d c33e 62ce ccbe d3d4 b93e 86d1 ab3e
00000300: 1804 023f 059c 483f fbfb e13e 5114 99be
00000310: ab80 a1be 9f82 90be a495 8bbb f9e4 283e
00000320: 4a33 e73e 6bdf 7d3e ea30 853e 5a54 66be
00000330: c0ce 913e ea02 07bf 0589 a73e 882b c03e
00000340: 46c5 f43e 9d16 823e 666f 1bbe f2c0 d8bc
00000350: 8317 d73e c091 32be 49d7 b23e e16f aabe
00000360: e307 07bf cf92 ed3e dffd c8be 6edc b53e
00000370: b9c5 d1be be57 c3be a1d5 11bf 2e49 5f3e
00000380: 1cd3 98be 294d 283f ca61 8f3e feb0 f83e
00000390: 81bb 81be 856e cdbe 876b 81bd adc1 8d3e
000003a0: 50b4 f73e a36e 023f 9ed4 fb3e 0d17 103f
000003b0: 5130 423e a1b8 9c3e 775c 81be 6b0f b43e
000003c0: 688d 473e 7a75 9c3e 07bf e73e 0aec 483f
000003d0: 9d69 be3e 9753 253e 4b48 2b3f dd1d 033f
000003e0: bf57 1e3e 2b7c fe3e ac3d a8be fd84 98be
000003f0: bca4 f33e b1da da3e 998b 043f 82a0 353f

l1.bias f4 [8]
0.44240355 0.6475091 0.45551085 0.70105356 0.5273745 0.7692345 0.7417877 -0.1141832
00000000: b882 e23e 28c3 253f b838 e93e 3f78 333f
00000010: 0402 073f 8dec 443f cce5 3d3f e2d8 e9bd

l2.weight f4 [8, 8]
-0.5661065 0.9617922 1.0969841 0.36963537 0.25405788 -0.21746801 0.23218124 0.15973373
0.18489213 -0.040892992 0.9286432 -1.0419955 0.856278 0.38113418 -0.6511575 -0.20950608
-0.79312223 1.1622409 -0.43680102 1.0000697 -0.35811707 0.8896757 0.79487854 0.2581081
-0.4727452 1.0140294 0.6607271 0.7447196 0.4553346 -0.8995955 0.91328025 -0.122728884
-0.55568564 -0.799314 0.32929605 -0.42969626 -0.3176769 0.83989984 1.2385186 -0.04497531
1.1826756 0.2183764 -0.4434927 0.823794 0.18266763 1.1224298 -0.8529272 0.16412112
0.5624389 0.008875567 1.0080132 0.14561026 1.0954462 -0.956521 0.54956347 0.0010428346
0.29686424 -0.83510506 0.101819605 -1.095977 0.39433497 0.9862604 0.99669445 0.14766921
00000000: 5bec 10bf 0338 763f fa69 8c3f d940 bd3e
00000010: e013 823e efaf 5ebe ebc0 6d3e 3d91 233e
00000020: 5d54 3d3e 697f 27bd 90bb 6d3f 1c60 85bf
00000030: 0935 5b3f 0524 c33e 42b2 26bf c388 56be
00000040: 0f0a 4bbf 4fc4 943f 62a4 dfbe 4902 803f
00000050: 1f5b b7be c9c1 633f 297d 4b3f bf26 843e
00000060: a90b f2be b7cb 813f 6925 293f f2a5 3e3f
00000070: 9e21 e93e e44b 66bf bccc 693f 4859 fbbd
00000080: 6a41 0ebf d89f 4cbf 7e99 a83e 2601 dcbe
00000090: 8ca6 a2be ad03 573f c787 9e3f 0838 38bd
000000a0: ea61 973f 109e 5f3e 7a11 e3be 2ae4 523f
000000b0: 390d 3b3e c8ab 8f3f 7059 5abf 5e0f 283e
000000c0: fffb 0f3f d36a 113c 9406 813f db1a 153e
000000d0: 9537 8c3f 8fde 74bf 31b0 0c3f b9af 883a
000000e0: 97fe 973e 72c9 55bf cc86 d03d f948 8cbf
000000f0: 46e6 c93e 907b 7c3f 5e27 7f3f 9936 173e

l2.bias f4 [8]
0.18266699 0.13584164 0.4587217 0.09790906 0.52725714 0.7770788 0.42895702 0.7408301
00000000: 0e0d 3b3e 121a 0b3e 92dd ea3e 8c84 c83d
00000010: 53fa 063f a3ee 463f 41a0 db3e 0ba7 3d3f

l3.weight f4 [7, 8]
-0.9562427 -0.56029814 0.27350074 -1.0904754 -0.5411745 0.6642416 -0.82579976 -0.81155413
-0.49645996 -1.330159 -1.2140958 -0.25958234 -0.7733695 0.6632172 0.74257314 -0.35853872
0.45273736 -0.43515125 0.7859171 0.16517547 -0.07812284 -0.16506468 -1.043547 -0.6494756
-0.64541835 -0.8888054 0.3053397 -1.1288947 0.9242837 -0.21332864 -0.30139336 0.8793302
0.22597694 0.45154592 -0.76527053 0.13421956 0.5051191 -1.1309317 0.50400376 -0.058047414
0.08874484 0.9786706 -0.9083598 -0.81382096 -0.8990545 0.06275231 0.092853 0.34433705
0.48013002 -0.70637494 0.07232225 0.91232586 -0.71223503 -1.0900668 0.5525554 -0.6596766
00000000: 52cc 74bf b36f 0fbf 4a08 8c3e b394 8bbf
00000010: 698a 0abf bd0b 2a3f 9d67 53bf 03c2 4fbf
00000020: 0030 febe a642 aabf 7e67 9bbf fae7 84be
00000030: 8bfb 45bf 9ac8 293f 4619 3e3f 6392 b7be
00000040: 31cd e73e 25cc debe dd31 493f c223 293e
00000050: defe 9fbd b706 29be f392 85bf 0844 26bf
00000060: 233a 25bf c088 63bf 7c55 9c3e 9f7f 90bf
00000070: db9d 6c3f d372 5abe 3b50 9abe c91b 613f
00000080: 8066 673e 0731 e73e c5e8 43bf da70 093e
00000090: 7c4f 013f 5fc2 90bf 6406 013f 20c3 6dbd
000000a0: dbbf b53d 288a 7a3f 458a 68bf 9256 50bf
000000b0: 7028 66bf 4884 803d b729 be3d f24c b03e
000000c0: 9ad3 f53e fdd4 34bf b01d 943d 308e 693f
000000d0: 0955 36bf 4f87 8bbf 4574 0d3f 91e0 28bf

l3.bias f4 [7]
-0.009742771 0.10684936 0.048315108 -0.015083025 -0.089616925 0.092610426 -0.3932228
00000000: 25a0 1fbc d6d3 da3d 10e6 453d cb1e 77bc
00000010: 1489 b7bd 89aa bd3d 8054 c9be
