data.pth (torch, 4823 bytes, 6 tensors)

l1.weight f4 [8, 50]
0	0x3ce6f714	0.028193988
1	0x3ec37d31	0.3818145
2	0xbee28dc4	-0.44248784
3	0x3dfbc0a3	0.12292602
4	0xbea4d05e	-0.32190222
5	0x3f3329b8	0.6998553
6	0xbe488d8d	-0.19585247
7	0xbf0118da	-0.50428545
8	0xbe3f715a	-0.18695584
9	0xbefa615f	-0.48902413
10	0x3dd8a492	0.10578264
11	0x3f0cb5a2	0.5496465
12	0xbe42b312	-0.19013622
13	0x3ebcf0de	0.36902517
14	0x3e7e7c02	0.24851993
15	0xbc0b377b	-0.008497114
16	0x3f2e2f9b	0.6804139
17	0xbe509cc2	-0.20372298
18	0xbdd61d76	-0.10454838
19	0x3e01e7fe	0.12686154
20	0xbd332673	-0.04373784
21	0xbdb6d4db	-0.08927318
22	0x3e957413	0.2919012
23	0xbe542e26	-0.20720729
24	0x3d6fa184	0.058503643
25	0xbe78b00b	-0.24285905
26	0x3ee37c78	0.444309
27	0xbd152b5c	-0.036418304
28	0x3e68dc90	0.22740388
29	0x3ef7f4c7	0.48428938
30	0x3ec8ceea	0.39220363
31	0xbdc6a0c1	-0.0969863
32	0xbe764784	-0.24050719
33	0x3ee8c633	0.45463714
34	0xbc35bcf0	-0.0110924095
35	0xbeba92cc	-0.36440122
36	0xbdcb1e1b	-0.099178515
37	0xbd025bf3	-0.03182597
38	0x3eaa22d8	0.3322971
39	0xbecbb4c0	-0.3978634
40	0x3e96fd31	0.29490045
41	0x3eb28d4f	0.34873435
42	0x3ec44987	0.38337347
43	0x3d37dc7a	0.044887997
44	0x3e0f8d51	0.14018752
45	0x3e2fabcc	0.17155379
46	0xbe82c4d2	-0.25540787
47	0xbe71f483	-0.2362843
48	0xbe1e0a96	-0.15433726
49	0x3e3daa73	0.18522052
50	0x3e435b68	0.19077837
51	0xbd953a4d	-0.072865106
52	0xbdf2d4c9	-0.11856992
53	0x3f23a749	0.6392713
54	0x3e751400	0.2393341
55	0xbf4a944c	-0.79132533
56	0xbe8ed7e6	-0.27899092
57	0xbed48f4e	-0.41515583
58	0xbeff3c47	-0.49850675
59	0xbec3859d	-0.38187876
60	0x3f13cd11	0.5773478
61	0x3f2d7cf6	0.677688
62	0xbedc0dc0	-0.4297924
63	0x3f4f4858	0.8096976
64	0xbe42f893	-0.19040136
65	0x3f050e94	0.5197537
66	0xbf42a396	-0.7603086
67	0xbc81a041	-0.015823485
68	0x3f2dbcf0	0.6786642
69	0x3d2fab05	0.042887706
70	0x3f347371	0.7048865
71	0x3f2caf20	0.6745472
72	0x3f7f5cb6	0.9975084
73	0xbdef4c65	-0.11684493
74	0x3ec4781b	0.38372883
75	0xbea65f93	-0.32494792
76	0xbe99cdce	-0.3003983
77	0xbedc262b	-0.4299787
78	0xbda8cdcf	-0.0824238
79	0xbeba668c	-0.36406362
80	0x3f496ab6	0.7867845
81	0x3e57fcca	0.21092525
82	0xbe3e4d63	-0.18584208
83	0xbe4b25f9	-0.19838704
84	0xbeb1d659	-0.34733847
85	0xbef334c7	-0.47501203
86	0xbd71bbac	-0.05901687
87	0xbe7d6035	-0.24743731
88	0xbebd81a5	-0.37012973
89	0xbe6cbf5a	-0.2311987
90	0xbe3ffd77	-0.18749033
91	0x3f03fa51	0.5155383
92	0xbe5c821f	-0.21534012
93	0x3e17b92b	0.1481673
94	0xbd9e5f59	-0.0773303
95	0x3ea39b68	0.31954503
96	0xbe6e3ce5	-0.23265417
97	0xbe20e6aa	-0.15712991
98	0xbdb7f86b	-0.08982929
99	0xbd6a24a0	-0.057163835
100	0xbea77e29	-0.3271344
101	0x3f0025ce	0.50057685
102	0x3ed4283d	0.4143695
103	0x3ec02887	0.3753092
104	0x3f0c6336	0.54838884
105	0xbf196021	-0.59912306
106	0x3edbb8b8	0.42914367
107	0x3ed36fb2	0.41296154
108	0x3ead9676	0.33903855
109	0x3eebbc84	0.46042264
110	0x3ee14d43	0.4400426
111	0xbe410dd7	-0.18852936
112	0x3ed734d4	0.42032492
113	0xbe1590f3	-0.14606075
114	0x3f0f186e	0.5589665
115	0x3f18afb9	0.5964313
116	0xbf195ce3	-0.5990736
117	0xbe692d08	-0.22771084
118	0x3f6e9e09	0.9320989
119	0xbe4b769e	-0.19869468
120	0x3f53b3fb	0.82696503
121	0x3f49d34c	0.7883804
122	0x3e4fc6b4	0.20290643
123	0x3eec350f	0.4613423
124	0x3f070853	0.52747077
125	0xbeb8528e	-0.36000484
126	0x3f1a65a4	0.6031134
127	0xbea6fb5a	-0.3261364
128	0x3f2e7c31	0.6815825
129	0xbe972eb9	-0.29527834
130	0xbe1b9eff	-0.15197371
131	0xbdaa974d	-0.083296396
132	0x3eb9af78	0.36266685
133	0x3f4a8c17	0.7912001
134	0xbe81d8ed	-0.25360814
135	0x3e87864a	0.26469642
136	0x3e8c4ac0	0.2740078
137	0x3ec166bb	0.3777369
138	0xbea394ed	-0.3194956
139	0xbf18e20d	-0.59719926
140	0x3f22a22b	0.635287
141	0x3d719666	0.05898132
142	0x3f2e9676	0.68198335
143	0xbf0c925c	-0.54910827
144	0xbd9671d4	-0.0734593
145	0x3e59db4b	0.2127506
146	0xbed59e70	-0.4172244
147	0xbee04b7e	-0.43807596
148	0x3eadff59	0.33983877
149	0x3c800e25	0.015631745
150	0xbe7d02e8	-0.2470814
151	0xbd11704e	-0.035507493
152	0x3f158372	0.58403695
153	0x3df88da7	0.12136393
154	0x3f411fa2	0.7543889
155	0xbe5734f8	-0.210163
156	0x3f17610a	0.59132445
157	0x3efd7b6a	0.4950822
158	0x3f35379a	0.70787966
159	0x3f138ffe	0.5764159
160	0x3e7327d3	0.2374566
161	0xbe7a1d00	-0.24425125
162	0x3f3c0d43	0.73457736
163	0xbe0cbf06	-0.13744745
164	0xbe2e6507	-0.17030726
165	0x3e936370	0.28786802
166	0xbe81ac79	-0.253269
167	0x3ef592c5	0.4796354
168	0x3e76f2bd	0.24116035
169	0xbd1666ba	-0.03671906
170	0x3e94ae55	0.29039255
171	0x3eb59d69	0.35471657
172	0xbe689615	-0.22713502
173	0x3ef30691	0.47465947
174	0x3e01edda	0.1268839
175	0x3f161ce7	0.5863785
176	0xbe4f80fc	-0.20264047
177	0x3ec12428	0.37722898
178	0xbed93e16	-0.4243018
179	0xbe958813	-0.2920538
180	0xbeb718f4	-0.35761225
181	0x3d611897	0.05495509
182	0x3f46b0bb	0.7761342
183	0x3e9d4afb	0.30721268
184	0x3ea7e879	0.3279455
185	0x3f36c050	0.71387196
186	0x3f16caf6	0.58903444
187	0x3f1a4c0a	0.60272276
188	0xbe36de6c	-0.17858285
189	0x3f0ee368	0.55815744
190	0xbd92f309	-0.071752615
191	0x3edd2454	0.4319178
192	0x3ea7d985	0.32783142
193	0xbf2c5cb1	-0.67328936
194	0xbe804d15	-0.2505881
195	0x3ed95f4d	0.4245552
196	0x3f032cd0	0.51240253
197	0x3ea2db15	0.3180777
198	0x3f11069c	0.5665071
199	0x3eecd3ed	0.46255437
200	0x3f0822b7	0.5317797
201	0x3f0ab81f	0.54187196
202	0x3e1a149f	0.15046929
203	0x3eca39e7	0.394973
204	0x3ebb656a	0.3660081
205	0xbef541a2	-0.47901636
206	0x3e79e079	0.24402036
207	0x3edaadc9	0.42710713
208	0x3ece5a21	0.40303138
209	0x3e9f2bfa	0.3108824
210	0x3f125561	0.5716153
211	0xbea2753f	-0.31730077
212	0x3ebcdec7	0.36888716
213	0xbe85b2d6	-0.26113003
214	0x3ebff2c8	0.37489915
215	0x3eff9640	0.4991932
216	0xbed84fa3	-0.42248258
217	0xbe4d3584	-0.20039946
218	0x3f007fa8	0.5019479
219	0x3f01b545	0.5066722
220	0x3f23ba36	0.6395601
221	0x3f2a93c9	0.6663175
222	0x3e66a1d3	0.22522669
223	0x3ea7938d	0.3272976
224	0x3ee7695f	0.4519758
225	0xbe39a738	-0.18130195
226	0x3f15e47f	0.5855178
227	0xbd6dc3e9	-0.058048163
228	0x3f055397	0.5208067
229	0xbf02315c	-0.50856566
230	0xbea7f8f3	-0.3280712
231	0x3ebc2478	0.36746573
232	0x3e948271	0.2900577
233	0x3f1d9825	0.6156028
234	0xbda1b5e3	-0.0789602
235	0x3e2d68f1	0.16934563
236	0x3eb6dc0f	0.35714766
237	0x3ee0b1d7	0.4388568
238	0xbec258fc	-0.37958515
239	0xbebfcf76	-0.37462968
240	0x3f0cc5fb	0.54989594
241	0xbe35260e	-0.17690298
242	0x3f181c6e	0.5941838
243	0x3f5d7f99	0.86522824
244	0x3eb79b2a	0.35860568
245	0x3e65d270	0.22443557
246	0xbeb53051	-0.35388425
247	0xbe69e734	-0.22842103
248	0x3ec245a1	0.37943748
249	0x3eba2650	0.36357355
250	0x3ef6b5ed	0.48185673
251	0x3eecc37b	0.4624289
252	0xbedc030f	-0.42971084
253	0xbebba7da	-0.36651498
254	0xbe5f05ed	-0.21779604
255	0x3f4c9f6f	0.79930776

l1.bias f4 [8]
0	0x3f30149d	0.68781453
1	0x3f4a95a3	0.7913458
2	0x3f196317	0.59916824
3	0x3f08ce98	0.5344024
4	0x3f60c441	0.8779946
5	0x3f225801	0.63415533
6	0x3f451f59	0.7700096
7	0x3efe9d77	0.4972951

l2.weight f4 [8, 8]
0	0xbf3bc96f	-0.7335424
1	0xbf134693	-0.5752956
2	0xbea89c4a	-0.3293174
3	0x3f02d2b6	0.5110277
4	0xbdbe0087	-0.09277444
5	0x3f238f78	0.6389079
6	0x3e5b92b1	0.21442677
7	0xbf0753b1	-0.5286208
8	0x3f1ff064	0.6247618
9	0xbf2dd9d0	-0.6791048
10	0xbf83cdec	-1.0297217
11	0x3efc1005	0.49230972
12	0xbf1b77c0	-0.607296
13	0x3f773cae	0.96576965
14	0x3f1d8251	0.6152697
15	0x3eed96a2	0.46403986
16	0xbe827382	-0.2547875
17	0xbea7ff1e	-0.32811826
18	0xbe91be2a	-0.28465396
19	0xbea0967b	-0.31364807
20	0xbe5b9c81	-0.2144642
21	0x3e8bb596	0.27286977
22	0x3e3badd4	0.18328029
23	0x3d6a5f60	0.057219863
24	0x3fb9bd37	1.4510869
25	0x3fc89d1b	1.5672945
26	0x3f3f645d	0.7476252
27	0xbf3d78b6	-0.74012315
28	0x3f2d57bd	0.67712003
29	0xbdd70ebe	-0.10500859
30	0x3f214fad	0.630122
31	0xbf4d1400	-0.8010864
32	0xbe47b48a	-0.19502464
33	0x3ccc01f0	0.024903268
34	0xbe665f64	-0.22497326
35	0xbe913e86	-0.28368014
36	0xbe918ed3	-0.2842928
37	0xbea28a9d	-0.3174638
38	0xbea1c058	-0.3159206
39	0x3e0ef584	0.13960844
40	0xbf4981cb	-0.78713673
41	0x3e748c92	0.23881748
42	0x3f4f4d96	0.8097776
43	0x3f69a992	0.9127437
44	0x3f867637	1.0504826
45	0x3e6dbfdb	0.23217718
46	0x3f847b83	1.0350193
47	0xbf3c1911	-0.7347575
48	0x3f8e28bd	1.1106182
49	0xbf111052	-0.5666553
50	0xbf4de639	-0.80429417
51	0xbf4fd68e	-0.8118676
52	0x3f5f3f18	0.8720565
53	0x3fbc8ffa	1.4731438
54	0x3e252723	0.1612821
55	0x3f604c4e	0.8761643
56	0x3ecce0fe	0.40015405
57	0xbeac02c7	-0.3359587
58	0x3fb9d698	1.4518614
59	0x3f9d1b45	1.2273947
60	0x3f4cb187	0.79958385
61	0xbeec8527	-0.46195337
62	0xbf08ff54	-0.535146
63	0x3f9bb41b	1.2164339

l2.bias f4 [8]
0	0xbc9ca01d	-0.019119317
1	0x3eb567cd	0.35430756
2	0xbdfcf734	-0.12351838
3	0x3f635d9f	0.8881473
4	0xbc477ea0	-0.012176186
5	0x3ec82d7d	0.39097205
6	0x3ec21616	0.37907475
7	0x3d77f1b3	0.060533237

l3.weight f4 [7, 8]
0	0xbed94d20	-0.42441654
1	0xbf8cef6a	-1.1010563
2	0xbdb744e5	-0.089486875
3	0x3f283a50	0.6571398
4	0x3cc5e520	0.024157107
5	0xbf60f5ce	-0.8787507
6	0xbf42a4be	-0.76032627
7	0xbf934e21	-1.1508218
8	0xbf124564	-0.5713713
9	0xbfa82030	-1.3134823
10	0x3e8b973a	0.27263814
11	0xbef4881a	-0.47760087
12	0x3e18f8e2	0.14938691
13	0xbf1202f0	-0.5703573
14	0x3f06f448	0.52716494
15	0x3f20734d	0.62675935
16	0xbf490f0f	-0.785386
17	0x3f40dc99	0.75336605
18	0x3e6ffec3	0.23437028
19	0xbe897e2f	-0.26854083
20	0xbe298cfd	-0.16557689
21	0xbfb754e1	-1.4322778
22	0x3f31ac0f	0.69403166
23	0xbd80253b	-0.06257101
24	0xbed30903	-0.41217813
25	0xbf8c2abc	-1.0950541
26	0x3d4e4244	0.050356165
27	0x3e49778b	0.19674508
28	0xbe933b71	-0.28756288
29	0x3f36954c	0.7132156
30	0xbf87bb9f	-1.0604132
31	0xbd7111b5	-0.058854777
32	0x3f4d894b	0.8028762
33	0x3ec8a4af	0.39188144
34	0xbd4b96e2	-0.04970444
35	0xbf867373	-1.0503982
36	0x3dabb194	0.0838348
37	0x3edcc74b	0.43120798
38	0xbf0b3f20	-0.54393196
39	0xbdda2c67	-0.10653
40	0xbf700947	-0.93764156
41	0xbf6d55e2	-0.9270917
42	0xbe2118c0	-0.15732098
43	0xbf8cc7c8	-1.0998468
44	0xbd9cf574	-0.07664004
45	0x3ed0f81e	0.40814298
46	0xbf882f45	-1.0639426
47	0x3f4e0043	0.8046915
48	0xbf313549	-0.6922193
49	0xbf1d5072	-0.61450875
50	0xbe09eea8	-0.13469946
51	0xbd243365	-0.040088076
52	0xbe2834b4	-0.16426355
53	0x3f0d2973	0.5514137
54	0x3f3a6e70	0.72824764
55	0xbfb4b695	-1.411822

l3.bias f4 [7]
0	0xbc9683a3	-0.018373316
1	0xbe56716f	-0.20941709
2	0x3ec95ef0	0.39330244
3	0x3c2418d0	0.010015681
4	0x3d8d9914	0.06913963
5	0x3d36ba7c	0.04461144
6	0xbe273d96	-0.16332087
