data.pth (torch, 4823 bytes, 6 tensors)

l1.weight f4 [8, 50]
0	0xbda21810	-0.07914746
1	0xbc1c4c09	-0.009539613
2	0x3f125169	0.5715547
3	0x3da973e1	0.08274055
4	0x3ac50c46	0.0015033565
5	0xbea1e342	-0.31618696
6	0x3e712146	0.23547849
7	0x3e515684	0.2044316
8	0x3eba99ee	0.36445564
9	0x3e76ecbe	0.24113747
10	0x3ef86313	0.48513088
11	0x3ed2eaaa	0.4119466
12	0x3e6e2ac4	0.23258501
13	0x3ee736a3	0.45158872
14	0xbdf9e7b4	-0.12202397
15	0x3edd8214	0.43263304
16	0xbea1e79b	-0.31622013
17	0xbe829fce	-0.25512546
18	0x3f25e8d9	0.6480842
19	0x3dc604be	0.09668873
20	0x3f15dde3	0.585417
21	0x3f2b67ef	0.66955465
22	0x3f0c3db5	0.5478166
23	0x3e29c89b	0.16580431
24	0x3e890659	0.26762655
25	0xbe82bc7c	-0.25534427
26	0x3d578945	0.052621145
27	0x3d5e8c6c	0.054333135
28	0xbd80bf1b	-0.062864505
29	0xbe1dc1ed	-0.15406008
30	0x3eb1f65f	0.3475828
31	0x3d4284c8	0.04748991
32	0x3f16f8b2	0.5897323
33	0xbc05cd4c	-0.008166622
34	0xbde24e3e	-0.1105008
35	0x3ee0d953	0.43915805
36	0x3e95f5f2	0.29289204
37	0x3e84fd0a	0.25974303
38	0xbe7a3cbf	-0.24437235
39	0xbe8a1d14	-0.2697531
40	0xbe31cda5	-0.17363603
41	0x3f1ed29a	0.620401
42	0x3d0ddb4c	0.034632966
43	0xbec19539	-0.3780916
44	0x3df95dd0	0.121760964
45	0x3e7c0388	0.24610722
46	0xbeaf1145	-0.34192863
47	0xbdf77d01	-0.120843895
48	0x3ebd2011	0.36938527
49	0x3da87571	0.08225525
50	0xbe20d3f9	-0.15705861
51	0x3f279817	0.65466446
52	0xbeffc67a	-0.49956113
53	0xbe1c8141	-0.15283681
54	0x3d9b5cce	0.075860605
55	0x3ea66226	0.32496756
56	0xbe183974	-0.14865667
57	0xbeb6b14b	-0.3568214
58	0xbec52444	-0.3850423
59	0xbeb2bf81	-0.3491173
60	0xbda540e1	-0.08069015
61	0xbd8593f1	-0.06522358
62	0x3f3c142d	0.73468286
63	0xbd7739bc	-0.060357794
64	0x3f1f6ea6	0.6227821
65	0xbddcc567	-0.10779839
66	0x3eda614c	0.42652357
67	0x3ef3c4fd	0.47611228
68	0xbe26f93b	-0.16306011
69	0xbda9075d	-0.082533576
70	0xbeb08493	-0.34476146
71	0xbdf85552	-0.121256486
72	0xbea1c74e	-0.3159737
73	0x3c54564c	0.012960028
74	0xbe7785bd	-0.24172111
75	0x3f1cc918	0.61244345
76	0x3f3e8802	0.7442628
77	0x3eebd17e	0.46058267
78	0x3f0ca255	0.549352
79	0x3e1a9f95	0.15099938
80	0xbc45e080	-0.012077451
81	0xbde8232c	-0.113348335
82	0xbeb1f28a	-0.34755355
83	0x3efdd9fd	0.49580374
84	0x3e984626	0.2974102
85	0xbee16e65	-0.44029537
86	0xbd30285b	-0.043007236
87	0xbdf57ee4	-0.11987093
88	0x3d5afd90	0.053464472
89	0x3f107a48	0.56436586
90	0x3ec34c30	0.38144064
91	0xbeea1cc0	-0.4572506
92	0x3f297b6f	0.6620397
93	0xbf2f9f3a	-0.68602335
94	0xbe5ce619	-0.2157215
95	0x3eeddb99	0.46456602
96	0x3f14f013	0.58178824
97	0x3ea4cfbb	0.32189736
98	0x3d5b2c15	0.053508837
99	0x3e9de4a3	0.30838498
100	0xbd28aa3e	-0.04117798
101	0xbe907640	-0.28215218
102	0x3ed07260	0.4071226
103	0x3eddf757	0.43352768
104	0x3f1dce9b	0.6164338
105	0xbed3802c	-0.41308725
106	0x3ee499e5	0.44648662
107	0x3ec247cb	0.379454
108	0x3ef09022	0.46984965
109	0x3ef2a06f	0.47388026
110	0x3ee137a8	0.43987775
111	0xbe60c959	-0.21951808
112	0x3ef884a2	0.4853869
113	0xbe81da6d	-0.25361958
114	0xbd9622a2	-0.073308244
115	0x3e8af062	0.27136523
116	0xbed37e6d	-0.41307393
117	0x3e02a225	0.12757166
118	0x3f359807	0.709351
119	0xbe5cd7dd	-0.2156672
120	0x3ec09a45	0.37617698
121	0x3f408f74	0.7521889
122	0x3e8a3ed2	0.27001053
123	0x3ef93b38	0.48677993
124	0x3f0f487c	0.5596998
125	0x3e96b705	0.29436508
126	0xbe9dd166	-0.3082382
127	0x3e05f125	0.1308027
128	0xbe5075e2	-0.20357469
129	0xbea64eb0	-0.3248191
130	0xbea51605	-0.32243362
131	0x3d89e848	0.06733757
132	0x3e91b468	0.28457952
133	0xbdebce2f	-0.11513936
134	0x3e5c206d	0.21496744
135	0x3f21f318	0.63261557
136	0x3eddeef7	0.43346378
137	0x3eb45f40	0.3522892
138	0xbea8344e	-0.32852405
139	0x3e985340	0.29751015
140	0xbd94dda2	-0.072688356
141	0x3e739581	0.237875
142	0xbbafd913	-0.0053664534
143	0xbf049ddd	-0.5180338
144	0xbe2011d3	-0.156318
145	0x3e7f5df3	0.24938183
146	0x3e22662f	0.15859292
147	0x3e8ab3aa	0.27090198
148	0x3ebbcd45	0.36680046
149	0x3eba2b66	0.36361235
150	0x3f1328ad	0.5748394
151	0x3d8ad835	0.067795195
152	0x3e9d6166	0.30738372
153	0xbe75724c	-0.23969382
154	0xbe511412	-0.20417812
155	0x3ca0094b	0.019535681
156	0x3e9bd043	0.3043233
157	0x3e7999cf	0.2437508
158	0x3ec69ef5	0.3879315
159	0x3e19af23	0.15008216
160	0xbe20b870	-0.15695357
161	0xbe051d6e	-0.12999508
162	0x3ecebe11	0.40379384
163	0xbe0bd967	-0.13657151
164	0x3e168036	0.14697346
165	0xbdd87fa8	-0.105712235
166	0xbe7fe91a	-0.24991265
167	0x3ecdf4b6	0.40225762
168	0xbe866983	-0.26252374
169	0x3efe236a	0.49636394
170	0xbe866beb	-0.2625421
171	0xbe866c71	-0.2625461
172	0xbee5d63b	-0.44890007
173	0x3ec6658f	0.38749358
174	0xbe393f38	-0.18090522
175	0x3f046066	0.5170959
176	0xbebdb4db	-0.37052044
177	0x3eb8b087	0.3607218
178	0xbec1150a	-0.37711364
179	0xbeb46e4c	-0.352404
180	0x3da9f220	0.08298135
181	0x3ef65186	0.48109072
182	0x3e13bf78	0.14428508
183	0xbdb32531	-0.08747328
184	0x3ef00844	0.46881306
185	0x3e7774e2	0.24165681
186	0x3eb3e20d	0.351334
187	0x3e66f820	0.2255559
188	0xbe635d60	-0.22203588
189	0x3e9dd466	0.3082611
190	0xbdb5804f	-0.088623635
191	0x3e1dc575	0.15407355
192	0xbd8a7f71	-0.06762589
193	0x3f5dd863	0.86658305
194	0x3ebe66e8	0.37187886
195	0x3e221328	0.1582762
196	0x3f187b2a	0.59562933
197	0x3e9351a3	0.2877322
198	0x3e846bc1	0.2586346
199	0x3ec81966	0.39081877
200	0x3e9e8fa8	0.30968976
201	0x3f1e4772	0.61827767
202	0x3f110601	0.56649786
203	0x3e493e2e	0.19652626
204	0x3c9ac819	0.018894242
205	0xbef4388a	-0.47699386
206	0x3ef98638	0.48735213
207	0x3eeb2e16	0.45933598
208	0x3ec668fa	0.38751966
209	0x3eab19a6	0.33418006
210	0x3e958f89	0.2921107
211	0x3f068cca	0.5255858
212	0x3e92e547	0.2869055
213	0x3f1b10b8	0.60572386
214	0x3f1159ac	0.56777453
215	0x3df4aec5	0.11947397
216	0xbef433ca	-0.47695762
217	0xbea8b49a	-0.32950288
218	0x3e9aa727	0.30205652
219	0x3ebd9c0f	0.37033126
220	0x3e728c1d	0.23686261
221	0x3e8b81e0	0.27247524
222	0x3f2650bc	0.6496694
223	0x3f02c0c8	0.5107541
224	0x3e62036b	0.22071616
225	0xbe8a6cae	-0.2703604
226	0x3f0e991a	0.55702364
227	0x3d9479e6	0.07249813
228	0x3f109c1f	0.5648822
229	0xbe80f770	-0.2518878
230	0x3f3247da	0.69640887
231	0x3e2212c5	0.15827473
232	0x3f1e058f	0.6172723
233	0x3f2d23f3	0.6763298
234	0xbc90a391	-0.01765612
235	0x3ecd5a0c	0.40107763
236	0x3eb3c7ab	0.35113272
237	0x3f099592	0.5374385
238	0xbeafc8fa	-0.3433302
239	0xbee94a86	-0.4556467
240	0x3f0b1316	0.54326
241	0x3f5cf6e3	0.8631422
242	0x3f2dfe5c	0.67966247
243	0x3f28cdca	0.6593901
244	0x3e7abb74	0.2448557
245	0x3e0425fd	0.12905116
246	0xbed1c276	-0.40968674
247	0xbe9bfe4e	-0.30467457
248	0x3ee939ba	0.45551854
249	0x3e4a1d40	0.1973772
250	0x3edc0424	0.4297191
251	0xbe4d862c	-0.20070714
252	0x3ea790af	0.32727572
253	0xbe1162f2	-0.14197901
254	0x3d38d9c5	0.045129556
255	0x3f10424b	0.56351155

l1.bias f4 [8]
0	0x3ea1e23a	0.3161791
1	0x3ee8cfc0	0.45471
2	0x3ed38078	0.4130895
3	0x3e866c3c	0.2625445
4	0x3ef42f83	0.476925
5	0x3eff5a05	0.49873367
6	0x3f491faa	0.7856394
7	0x3f0cf4ab	0.55060834

l2.weight f4 [8, 8]
0	0xbe905426	-0.281892
1	0x3ef55e31	0.47923425
2	0xbf7cd9c7	-0.987698
3	0x3f4c0eae	0.797099
4	0x3f8102d0	1.0078983
5	0x3ec51073	0.38489112
6	0x3bd1c6be	0.0064018657
7	0x3f8b2d05	1.0873114
8	0x3db8cf3f	0.09023904
9	0x3cc3d61b	0.023905804
10	0x3f603cbf	0.8759269
11	0x3f12b7f3	0.57311934
12	0xbe79bdfc	-0.2438888
13	0x3f8737c5	1.0563895
14	0xbda644d5	-0.081185974
15	0x3cca3335	0.02468262
16	0x3f48d0ae	0.7844342
17	0xbf868053	-1.0507911
18	0x3e70ceb8	0.23516357
19	0x3ddf36b9	0.108991094
20	0x3d9b0ad7	0.07570427
21	0x3f1d7810	0.61511326
22	0x3f2455c8	0.6419339
23	0x3eeb0b4e	0.45907062
24	0x3e3179dc	0.17331642
25	0x3f451917	0.7699141
26	0x3f81cef1	1.0141279
27	0x3e9939e2	0.29926974
28	0x3f1c15fd	0.6097105
29	0x3e108896	0.14114603
30	0x3e2e0cb6	0.16997036
31	0xbf85b4ba	-1.0445778
32	0xbf1fb763	-0.623892
33	0x3fb21a1c	1.3914218
34	0xbeb6dc02	-0.35714728
35	0x3dbbe05e	0.09173654
36	0xbf0870f8	-0.53297377
37	0x3f2a46fd	0.6651457
38	0x3f7872ad	0.9704998
39	0x3f2eca59	0.6827751
40	0xbc28eb10	-0.0103099495
41	0x3f421092	0.75806534
42	0x3ed3798c	0.4130367
43	0xbf14ca64	-0.58121324
44	0xbd9e5320	-0.077306986
45	0xbf07efc3	-0.5310022
46	0x3f9b0ac3	1.2112659
47	0x3d927237	0.07150691
48	0x3f0531be	0.52029026
49	0x3df3733b	0.11887213
50	0x3f19d61f	0.6009235
51	0x3f83d923	1.030064
52	0x3f170784	0.5899584
53	0x3f6d474b	0.9268691
54	0xbf83d5a1	-1.0299569
55	0x3e4d0208	0.20020306
56	0x3f9dd284	1.2329869
57	0x3e72a79f	0.23696755
58	0x3f7158b6	0.9427599
59	0xbf5b1e99	-0.85593563
60	0x3f9c1d3f	1.2196425
61	0xbf3b4bf0	-0.73162746
62	0x3efd388e	0.4945721
63	0x3c286d6c	0.010279994

l2.bias f4 [8]
0	0x3e855db0	0.2604804
1	0x3f059e9f	0.5219516
2	0x3f3dcc3e	0.74139774
3	0x3e395d6c	0.18102044
4	0x3ec24998	0.37946773
5	0x3f3c37c6	0.73522604
6	0x3dc45b9c	0.095877856
7	0x3ebf6e94	0.37389052

l3.weight f4 [7, 8]
0	0x3ee0fad0	0.43941355
1	0xbf79b421	-0.9754048
2	0xbd4afd44	-0.04955794
3	0xbeb95572	-0.36198002
4	0xbf314e5a	-0.6926018
5	0xbeb07eb0	-0.34471655
6	0x3e336f0b	0.17522828
7	0x3f11f142	0.57008755
8	0x3ef348d5	0.47516504
9	0xbf562a18	-0.8365798
10	0xbf9ac2a7	-1.2090653
11	0x3e18ca82	0.14921
12	0x3e9ac8ba	0.30231267
13	0x3eb0c7e3	0.345275
14	0xbf1b07eb	-0.60558957
15	0x3f08dd09	0.5346227
16	0xbd12c41f	-0.035831567
17	0x3df39f69	0.118956394
18	0x3f142b7e	0.57878864
19	0xbf58f5a5	-0.84749824
20	0x3f68ea87	0.9098286
21	0x3f21065b	0.6290032
22	0xbf91f117	-1.14017
23	0xbf0baf20	-0.54564095
24	0xbfa5cd2f	-1.2953242
25	0x3d59a753	0.05313809
26	0x3f08636a	0.53276694
27	0x3f1067e2	0.5640851
28	0xbee34f31	-0.44396356
29	0x3f6b7bad	0.9198559
30	0xbf693b4a	-0.9110609
31	0x3f42ecb4	0.7614243
32	0xbf0a6857	-0.5406546
33	0x3ed5331e	0.41640562
34	0xbf86772b	-1.0505117
35	0x3ef67d35	0.481424
36	0x3e9fc4ae	0.31204742
37	0xbe7128ce	-0.23550722
38	0x3f0aef83	0.54271716
39	0xbf35a368	-0.70952463
40	0xbf63b4d1	-0.8894778
41	0x3ef65e6e	0.4811892
42	0x3eec77f8	0.4618528
43	0x3f1aed76	0.60518587
44	0xbf7d8bcf	-0.99041456
45	0xbf595e02	-0.8490907
46	0x3f025984	0.5091784
47	0x3e0d5260	0.13800955
48	0x3f3b6c7e	0.7321242
49	0x3ea530da	0.32263833
50	0x3e8cc93b	0.27497277
51	0xbf4cfe6b	-0.8007571
52	0xbe828e27	-0.2549908
53	0xbf55f5d2	-0.8357822
54	0x3f026a76	0.50943696
55	0xbf5686cc	-0.83799434

l3.bias f4 [7]
0	0xbd8399d1	-0.064258225
1	0xbe89a9f0	-0.26887465
2	0xbd081eba	-0.033232428
3	0x3ed97d4a	0.424784
4	0xbcb54c97	-0.022131247
5	0xbe747a27	-0.23874722
6	0x3eb9cefb	0.36290726
